DRL_DDPG/checkpoint_actor.pth (torch_old, 489949 bytes, 5 tensors)

layers.0.weight f4 [400, 3]
-0.09782106 -0.005410307 -0.17830013 -0.07428691 -0.15440615 -0.06450814 0.03905651 0.27586582
0.0962092 -0.13077809 -0.12760603 -0.045995664 0.18226258 -0.34174508 -0.047391284 0.0216269
-0.042769413 -0.00012123585 0.10974981 -0.18715161 -0.096655466 -0.28305373 -0.13618682 0.022776503
-0.16345184 -0.17843048 -0.023894118 -0.67469454 -0.24366064 0.034523144 -0.04072042 0.0016602799
0.0005077198 -0.034809466 -0.03453254 0.06842686 -0.15986693 0.21385288 0.2069384 -0.008847166
0.023326907 -0.0065227374 0.12760657 0.18423697 0.008202738 -0.086326376 -0.11531685 0.016639778
-0.15957922 -0.068733454 -0.2148197 -0.006706316 0.0136680715 0.0017826483 -0.13969827 -0.27458066
-0.04661397 -0.33469534 0.076133944 -0.19116488 -0.0050741807 0.032885876 0.04791506 -0.041334726
0.020467106 0.015500363 0.038523074 -0.10380899 -0.049558956 0.0024740398 0.02533121 -0.010311179
-0.07839818 -0.20195612 -0.026634036 0.010540798 0.0014235701 0.1609163 -0.30385023 0.051491015
0.04282091 -0.002597671 -0.003707409 -0.002865702 0.026745234 -0.024214882 0.04393435 0.026897851
0.034730706 -0.04139321 0.006111514 0.03656326 0.009795338 -0.0020808517 -0.13955106 0.08257663
0.04281654 -0.002116371 -0.017223157 0.058457438 -0.06510712 -0.032746837 -0.02530861 -0.025037909
0.045113016 -0.41247824 0.3382151 0.10145194 0.09374308 -0.03597259 -0.19461821 -0.09774615
-0.24455021 -0.034602087 -0.016176216 -0.020508831 -0.01582573 -0.13405582 -0.123949036 -0.085176766
0.0055245007 0.093500406 0.26290542 -0.047045793 0.04820553 0.0062896386 0.12104877 0.04475126
0.16888785 -0.09629548 0.07987053 0.03380152 -0.05104672 0.29254583 0.22824314 0.025978517
0.038606096 -0.02169457 -0.0993242 -0.16523387 -0.055123843 0.12961617 0.6255818 -0.040767923
-0.4535469 -0.11246667 -0.00847227 -0.19783457 0.07150323 -0.1265693 0.10911393 0.46851316
0.11338177 -0.44301134 -0.12213012 -0.17330754 -0.034439076 -0.03399934 -0.03088873 -0.19656481
-0.17010128 -0.08953731 -0.033428784 0.24874195 0.0011362057 0.020348754 0.008426357 -0.01426781
0.07864003 0.2693626 -0.05740282 0.10236572 -0.38392517 0.027958669 -0.14550963 -0.29978928
-0.040193025 0.10561144 0.110645436 0.16408388 -0.036599018 -0.0052224174 0.032829437 0.04692257
-0.03388556 0.046090607 -0.026965542 0.010871445 -0.2231929 -0.046556752 -0.04504026 0.009658836
0.035360176 0.043541465 0.012845967 0.20135345 0.7354832 -0.036186676 0.047458496 0.02529252
-0.005345635 -0.024625089 0.271662 -0.004158866 0.039893623 -0.015788503 -0.013104968 0.03539503
-0.010109372 0.017269824 0.024060313 -0.028099073 0.008834489 0.010928548 -0.3213885 -0.12438465
-0.31875435 -0.24054912 -0.036332507 -0.3458996 -0.31077567 -0.09000112 -0.048326343 0.17934406
0.011926089 0.013637457 -0.024840666 -0.013430454 0.022428174 0.048059914 0.02893236 -0.0033231564
0.004577093 -0.013995934 -0.03417203 -0.060388356 0.050626468 0.059314504 0.042566624 0.16861852
-0.022440033 -0.19883832 -0.043675605 -0.21981485 -0.21554361 -0.045214057 -0.66943574 -0.014998603
-0.024423534 0.20770349 -0.20978828 -0.19054812 -0.2426669 -0.50112104 0.053688854 0.018680222
00000000: 6856 c8bd f248 b1bb 4f94 36be bc23 98bd
00000010: a51c 1ebe d81c 84bd b8f9 1f3d 493e 8d3e
00000020: 5409 c53d b1ea 05be 28ab 02be f365 3cbd
00000030: 0ba3 3a3e 36f9 aebe 5d1d 42bd e62a b13c
00000040: fb2e 2fbd 0040 feb8 82c4 e03d aca4 3fbe
00000050: 4df3 c5bd 6bec 90be 8f74 0bbe ca95 ba3c
00000060: eb5f 27be 7bb6 36be 99bd c3bc c8b8 2cbf
00000070: 2d82 79be 2468 0d3d 75ca 26bd c09d d93a
00000080: 8018 053a 5f94 0ebd fe71 0dbd 6223 8c3d
00000090: 28b4 23be 40fc 5a3e a9e7 533e b4f3 10bc
000000a0: 1218 bf3c b0bc d5bb 4cab 023e 9ea8 3c3e
000000b0: c764 063c e2cb b0bd 3e2b ecbd 2550 883c
000000c0: bc68 23be 20c4 8cbd b2f9 5bbe a8c0 dbbb
000000d0: 0cf0 5f3c c0a7 e93a 100d 0fbe d695 8cbe
000000e0: 4aee 3ebd 305d abbe 1dec 9b3d bac0 43be
000000f0: 5045 a6bb 57b3 063d 9542 443d 9a4e 29bd
00000100: a2aa a73c 3cf5 7d3c 5fca 1d3d cf99 d4bd
00000110: 55fe 4abd 8023 223b 6683 cf3c 38f0 28bc
00000120: 3a8f a0bd 96cd 4ebe 9f2f dabc 50b3 2c3c
00000130: 1697 ba3a 3ec7 243e 4292 9bbe 3ee8 523d
00000140: fb64 2f3d b03d 2abb 00f8 72bb 80ce 3bbb
00000150: d218 db3c 4a5e c6bc 81f4 333d e258 dc3c
00000160: c941 0e3d ed8b 29bd 1843 c83b 5bc3 153d
00000170: a07c 203c e65e 08bb 79e6 0ebe f01d a93d
00000180: 6560 2f3d d0b2 0abb 9417 8dbc 1171 6f3d
00000190: e256 85bd 8c21 06bd 0154 cfbc 4d1c cdbc
000001a0: 6dc8 383d 5930 d3be 882a ad3e 09c6 cf3d
000001b0: 5ffc bf3d ff57 13bd ff49 47be 222f c8bd
000001c0: 5f6b 7abe ebba 0dbd fc83 84bc 2302 a8bc
000001d0: f6a4 81bc ee45 09be fed8 fdbd 2871 aebd
000001e0: df06 b53b 247d bf3d 8a9b 863e 17b3 40bd
000001f0: 2973 453d 5019 ce3b 6be8 f73d 194d 373d
00000200: f0f0 2c3e 9136 c5bd 2993 a33d 7673 0a3d
00000210: 5e16 51bd 91c8 953e 92b8 693e e6d0 d43c
00000220: 6d21 1e3d d0b8 b1bc 7c6a cbbd 1133 29be
00000230: 8ac9 61bd 1aba 043e 2126 203f 44fc 26bd
00000240: 4d37 e8be ed54 e6bd 47cf 0abc 2595 4abe
00000250: 4970 923d 629b 01be 2077 df3d f5e0 ef3e
00000260: b434 e83d 62d2 e2be 5b1f fabd 8877 31be
00000270: fd0f 0dbd e442 0bbd 5d0a fdbc 4948 49be
00000280: 082f 2ebe 565f b7bd 9fec 08bd 36b6 7e3e
00000290: bdec 943a 6eb2 a63c b40e 0a3c 88c3 69bc
000002a0: 060e a13d e5e9 893e 381f 6bbd 1ea5 d13d
000002b0: d791 c4be 9409 e53c 7a00 15be fb7d 99be
000002c0: 71a1 24bd d04a d83d 139a e23d 9b05 283e
000002d0: dae8 15bd d020 abbb 2978 063d e131 403d
000002e0: 96cb 0abd 81c9 3c3d d7e6 dcbc 251e 323c
000002f0: ae8c 64be 4bb2 3ebd 237c 38bd 1840 1e3c
00000300: d5d5 103d 8958 323d e477 523c 992f 4e3e
00000310: a148 3c3f 7b38 14bd d763 423d 4232 cf3c
00000320: 702a afbb 8eba c9bc 4817 8b3e 1947 88bb
00000330: 7f67 233d e456 81bc 38b6 56bc 61fa 103d
00000340: c8a1 25bc 7279 8d3c 221a c53c 0730 e6bc
00000350: 88be 103c a70d 333c 098d a4be 61bd febd
00000360: c533 a3be 8252 76be 65d1 14bd c119 b1be
00000370: fd1d 9fbe 8252 b8bd d8f1 45bd f8a5 373e
00000380: a565 433c a46f 5f3c a77e cbbc 680b 5cbc
00000390: 4abb b73c 79da 443d 8e03 ed3c 50c9 59bb
000003a0: 70fb 953b 344f 65bc f8f7 0bbd c859 77bd
000003b0: b35d 4f3d c4f3 723d 575a 2e3d 55aa 2c3e
000003c0: 29d4 b7bc 469c 4bbe 31e5 32bd 2517 61be
000003d0: 77b7 5cbe 6032 39bd 2460 2bbf b3bc 75bc
000003e0: dd13 c8bc 39b0 543e bdd2 56be 0c1f 43be
000003f0: ac7d 78be 7849 00bf d8e8 5b3d 4407 993c

layers.0.bias f4 [400]
-0.114980645 0.5888242 0.13921165 0.5097144 0.07383775 -0.45445186 0.058279302 0.2872794
0.27071038 0.18767576 -0.086640716 0.1772058 0.015945984 -0.21624646 -0.2741284 0.46270317
-0.094894774 -0.080426335 0.499031 -0.26692453 -0.4999559 -0.50319576 0.5130947 -0.2594539
0.4096775 0.018413253 0.1703317 -0.06752384 -0.5085116 -0.486234 -0.42814198 0.20754978
-0.4656543 0.456647 -0.3962744 0.15419519 0.06958383 0.4384369 -0.36424983 0.4247467
0.1495889 -0.2979961 0.003484269 0.3244294 0.10870556 -0.41349167 0.5174626 -0.15594056
0.11524146 0.61977154 0.2453921 0.012060585 -0.4410186 0.5700723 0.249241 -0.25897384
0.15724438 0.36862555 0.19361638 -0.015808774 -0.45190847 -0.5526156 -0.022844912 -0.41264048
-0.52523077 -0.23326118 -0.27506152 0.3014908 -0.47309703 -0.27047765 -0.41408575 0.14831583
0.32728183 0.3359943 0.16151837 -0.5518018 -0.3175722 -0.19352022 0.12438042 -0.028968873
0.41583654 0.3996795 0.016227886 -0.08869114 0.28403068 -0.3549901 0.013955674 -0.47868407
0.44475052 0.17328179 -0.3955187 -0.0036267643 0.38110912 0.13174048 0.42767334 -0.35576844
0.12259747 -0.29836857 -0.16806054 0.11105915 -0.3973016 0.010289921 0.32350975 -0.35497034
-0.06105401 0.39937952 0.48404548 -0.47061455 0.42253223 -0.32957965 0.17633922 -0.3291004
-0.50709474 -0.2655806 0.047355585 -0.003920359 0.122375816 0.0776666 0.3559859 0.19360583
-0.5554082 0.30130133 -0.2883708 0.46493468 -0.42429203 -0.51661 0.39843276 0.17268835
-0.55342025 0.07008981 0.29710537 0.16698925 0.33873275 0.10983127 0.3865079 -0.36584187
0.5137662 -0.49279177 0.096230626 0.2301676 0.505924 -0.0065510683 -0.08723305 -0.24686342
0.08455299 -0.5191728 0.34734064 -0.55087614 -0.3095234 0.12606668 0.07258653 -0.4612951
0.2551899 -0.20421115 -0.29405588 0.48263624 0.34413564 -0.45849818 -0.29792047 -0.17065355
-0.14413315 0.1801464 -0.0179623 0.49520817 0.5733627 -0.02825809 0.074583925 -0.18082547
0.04256692 0.2504905 -0.2668319 0.46275893 -0.04123588 -0.20107141 -0.42648473 -0.16543497
0.44984767 -0.5023136 -0.21992369 -0.3746826 0.4979477 0.44841108 0.45558044 0.06687778
0.19883789 0.09466549 -0.019404508 -0.5188243 -0.43852192 -0.45815623 0.32451677 0.11790751
0.09581889 -0.04091161 0.24908459 0.50142044 0.29804075 -0.37601987 -0.026021557 -0.4388687
-0.47907776 0.4441398 -0.5609738 0.18993862 0.074058525 0.2746931 0.08847858 -0.33968544
0.15039445 0.08828201 -0.48157954 0.010666486 -0.3403646 0.1066597 0.46206608 0.3751446
-0.13416761 0.3524678 0.24381423 -0.4068058 -0.16364624 0.3508029 0.12232453 0.09360107
0.32467455 0.3669298 0.51791596 0.22044575 -0.13929473 -0.22849399 0.30683082 -0.36441153
-0.3021363 -0.40578958 -0.5423882 0.12619469 -0.5607523 0.26914823 0.49037048 0.07914932
-0.50206584 0.49218202 0.064072356 0.09967941 -0.14572516 0.41443032 0.0989367 -0.20359625
0.057838473 0.40601128 0.19236082 0.2122015 0.31218982 0.11904725 0.30573627 -0.37795427
00000000: f97a ebbd 2fbd 163f 808d 0e3e a57c 023f
00000010: 3f38 973d eaad e8be 47b6 6e3d 4916 933e
00000020: 8d9a 8a3e 132e 403e b070 b1bd 7075 353e
00000030: 27a1 823c b66f 5dbe 8f5a 8cbe 6ee7 ec3e
00000040: 3158 c2bd 90b6 a4bd fe80 ff3e 55aa 88be
00000050: 38fa ffbe 70d1 00bf 2d5a 033f 24d7 84be
00000060: 40c1 d13e 64d7 963c 6f6b 2e3e f049 8abd
00000070: d12d 02bf aaf3 f8be 6d35 dbbe ee87 543e
00000080: 3e6a eebe a3cd e93e 7ae4 cabe 58e5 1d3e
00000090: f881 8e3d cd7a e03e f47e babe 6678 d93e
000000a0: d52d 193e f292 98be 5558 643b 9c1b a63e
000000b0: 05a1 de3d 2eb5 d3be 6e78 043f e2ae 1fbe
000000c0: b703 ec3d 59a9 1e3f 1148 7b3e c399 453c
000000d0: 31cd e1be 42f0 113f 0839 7f3e 3898 84be
000000e0: ac04 213e 7dbc bc3e 5f43 463e 6781 81bc
000000f0: 8c60 e7be 3778 0dbf 4125 bbbc 9d45 d3be
00000100: 8675 06bf 05dc 6ebe ddd4 8cbe 015d 9a3e
00000110: c639 f2be 0c7c 8abe 0c03 d4be 1be0 173e
00000120: 7c91 a73e 7207 ac3e 1265 253e e242 0dbf
00000130: d398 a2be 2a2a 46be 29bb fe3d 2150 edbc
00000140: 87e8 d43e cba2 cc3e 58f0 843c b3a3 b5bd
00000150: 786c 913e 43c1 b5be 57a6 643c 1416 f5be
00000160: 57b6 e33e c870 313e 6d81 cabe 02af 6dbb
00000170: bc20 c33e fae6 063e 00f8 da3e 4827 b6be
00000180: 6214 fb3d c4c3 98be 1018 2cbe fb72 e33d
00000190: 1e6b cbbe 0f97 283c 12a3 a53e acbe b5be
000001a0: c513 7abd 797b cc3e cfd4 f73e 64f4 f0be
000001b0: 2556 d83e aabe a8be 4592 343e d97f a8be
000001c0: f6d0 01bf 2efa 87be eef7 413d 5b76 80bb
000001d0: 2ca0 fa3d ab0f 9f3d c943 b63e 9b40 463e
000001e0: 3b2f 0ebf 2b44 9a3e 56a5 93be eb0b ee3e
000001f0: ce3c d9be 8e40 04bf 61ff cb3e 37d5 303e
00000200: f3ac 0dbf 3f8b 8f3d 321e 983e 3bff 2a3e
00000210: 616e ad3e 38ef e03d 5de4 c53e a04f bbbe
00000220: 2f86 033f 344f fcbe 9014 c53d 0eb1 6b3e
00000230: 3c84 013f 58aa d6bb 3ea7 b2bd c4c9 7cbe
00000240: 1e2a ad3d 82e8 04bf a2d6 b13e 3806 0dbf
00000250: da79 9ebe a017 013e 3fa8 943d df2e ecbe
00000260: 40a8 823e ba1c 51be 7e8e 96be 191c f73e
00000270: 8c32 b03e 46c0 eabe 0889 98be cebf 2ebe
00000280: a497 13be 4c78 383e ac25 93bc ed8b fd3e
00000290: e6c7 123f 837d e7bc 75bf 983d 502a 39be
000002a0: a75a 2e3d 4a40 803e 319e 88be bdee ec3e
000002b0: f4e6 28bd aae5 4dbe 355c dabe c967 29be
000002c0: 6f52 e63e a097 00bf ad33 61be 66d6 bfbe
000002d0: 00f3 fe3e 2396 e53e d741 e93e 38f7 883d
000002e0: 299c 4b3e fbdf c13d 34f6 9ebc abd1 04bf
000002f0: f285 e0be 7493 eabe 1027 a63e 7e79 f13d
00000300: b23c c43d ef92 27bd 0810 7f3e 175d 003f
00000310: cc98 983e ad85 c0be 292b d5bc 66b3 e0be
00000320: ae49 f5be 4b66 e33e fb9b 0fbf 457f 423e
00000330: ffab 973d 93a4 8c3e 4234 b53d 40eb adbe
00000340: 0101 1a3e 33cd b43d 9891 f6be 7cc2 2e3c
00000350: 4544 aebe 6770 da3d ed93 ec3e f412 c03e
00000360: 3c63 09be a976 b43e 70aa 793e da48 d0be
00000370: e192 27be 709c b33e 4885 fa3d ebb1 bf3d
00000380: be3b a63e 39de bb3e 2496 043f 88bc 613e
00000390: 47a3 0ebe 54fa 69be ee18 9d3e 2694 babe
000003a0: 9cb1 9abe a7c3 cfbe f4d9 0abf 2e39 013e
000003b0: 768d 0fbf cccd 893e d711 fb3e 0a19 a23d
000003c0: 6387 00bf 48ff fb3e 5e38 833d b824 cc3d
000003d0: fa38 15be 3630 d43e 539f ca3d 897b 50be
000003e0: 09e8 6c3d b6e0 cf3e 3cfa 443e 5a4b 593e
000003f0: 58d7 9f3e 0bcf f33d 7789 9c3e 3983 c1be

layers.1.weight f4 [300, 400]
0.017879657 0.03180275 0.043648418 -0.026525693 -0.016909191 0.028243892 -0.0197937 -0.021638379
-0.04576686 -0.061459314 -0.012057602 -0.006156076 0.0103619145 0.048747353 0.050530843 0.03509378
0.031366825 0.053151056 -0.012893799 -0.029845586 -0.0278131 -0.04835587 -0.024209553 0.030300193
-0.031017156 -0.047223274 0.009648954 0.05137147 -0.013512693 -0.05584768 -0.048420258 0.006188234
0.0052966997 0.0027515506 -0.044681646 -0.0039691213 -0.009990245 0.02306732 0.054448076 0.026234344
0.030472297 -0.04845363 -0.008122084 -0.04368277 -0.056937605 0.049194768 0.029060645 -0.018713217
-0.0037242025 -0.06651595 -0.006285895 -0.0111559965 0.025574185 -0.040421907 -0.027164951 -0.021700691
-0.05178749 -0.034298323 0.024036642 -0.029992536 -0.0286216 0.016961768 0.045552406 -0.0455998
-0.0144317 -0.0004061948 -0.04941277 -0.06065494 0.050162114 -0.05515692 -0.05415085 -0.012146197
0.0029095956 -0.025210956 0.008049725 0.027774677 -0.01403923 -0.038350202 -0.059291072 -0.03500396
-0.05052142 0.04101868 -0.06140266 0.056225732 -0.023441762 0.0207797 0.057383157 -0.05561648
-0.0003519282 -0.038151473 0.04968319 0.05767326 -0.022387667 -0.00358026 0.016952591 0.044553183
0.04132101 -0.04731163 -0.043688055 0.02614806 0.035012983 -0.012940988 0.047205158 0.045538068
-0.02967266 -0.022529123 -0.041401796 -0.00707452 -0.026503261 -0.01541236 -0.03098136 -0.00438153
-0.051265173 0.052853823 0.03550484 0.011959295 0.0116935605 -0.025047299 -0.0080703255 0.016376663
0.043980762 -0.034412343 0.038137518 -0.05721085 0.05049216 -0.0038443469 -0.012884271 0.037012544
-0.057283234 -0.052757606 -0.057623003 -0.0048553506 -0.016896786 -0.05673643 0.035628553 -0.04833871
-0.055528745 -0.018057592 0.033472113 0.034342162 -0.041019615 0.034495052 -0.04305642 -0.0050106496
0.01739216 0.026706852 -0.02770681 0.0015237778 0.033621937 0.011952793 0.035117052 -0.0133779235
-0.059848577 -0.005194366 -0.024072729 -0.05449035 -0.015167991 -0.03741032 -0.03784187 -0.025079481
-0.045390833 0.019062182 0.046804085 -0.04178342 0.040230148 0.04950462 0.0033264614 0.037969857
-0.0071832426 -0.041047186 0.05309844 0.012308747 0.047636952 -0.011344846 -0.057001945 -0.017199498
-0.03757715 0.032019556 -0.0093696425 -0.048238214 -0.0057740514 -0.044233296 -0.046694662 -0.037811074
0.03788987 -0.035105284 -0.029265257 0.0022989735 -0.051120955 0.0075155124 -0.0147843715 0.043193817
0.022033373 0.014812542 -0.022724934 -0.004250755 -0.024479857 -0.020247012 0.030840946 -0.04152351
0.041033648 -0.061691865 0.04708238 -0.054346506 0.00042051822 0.007797901 0.028959563 0.05725266
-0.040982477 -0.057232548 -0.040397458 -0.025166772 -0.0040111355 0.011799617 0.02650882 -0.0030668732
0.047576465 -0.059748437 -0.0066388072 -0.04816194 0.02168892 -0.020233683 0.045591656 0.03530335
-0.018428477 -0.0047642216 -0.04959749 0.0025361686 -0.021501087 0.035202794 0.025703643 -0.0009620972
0.05179275 0.043066867 -0.03123675 0.048961617 -0.034294453 -0.02007002 0.02960159 0.030677814
0.013641372 0.05088385 0.03579784 0.015781183 0.046082057 -0.0053050844 0.007074991 -0.036805104
0.021648034 -0.031699825 0.03426641 -0.019232888 -0.024592053 -0.046645157 -0.015826 0.006002441
00000000: 5c78 923c 9a43 023d afc8 323d 694c d9bc
00000010: 2585 8abc bc5f e73c 6626 a2bc f842 b1bc
00000020: 0876 3bbd c3bc 7bbd 408d 45bc e9b8 c9bb
00000030: 05c5 293c 4eab 473d 6ef9 4e3d 7fbe 0f3d
00000040: 807a 003d ecb4 593d 8340 53bc bb7e f4bc
00000050: 4cd8 e3bc ce10 46bd 1d53 c6bc 1c38 f83c
00000060: b117 febc 316d 41bd a516 1e3c e46a 523d
00000070: 5864 5dbc 89c0 64bd 5254 46bd abc6 ca3b
00000080: f08f ad3b 5c53 343b 1a04 37bd 670f 82bb
00000090: 20ae 23bc adf7 bc3c f204 5f3d 68e9 d63c
000000a0: 0aa1 f93c 5077 46bd 7d12 05bc b4ec 32bd
000000b0: 6837 69bd 7480 493d 9710 ee3c 764c 99bc
000000c0: c011 74bb 8439 88bd e9f9 cdbb a4c7 36bc
000000d0: f480 d13c 7191 25bd 0889 debc a6c5 b1bc
000000e0: 1e1f 54bd 667c 0cbd 7ee8 c43c e8b2 f5bc
000000f0: d877 eabc 68f3 8a3c 2995 3a3d dbc6 3abd
00000100: f072 6cbc 8bf6 d4b9 0b65 4abd 5071 78bd
00000110: ca76 4d3d 39ec 61bd 48cd 5dbd d800 47bc
00000120: eaae 3e3b 3587 cebc fee2 033c b887 e33c
00000130: cc04 66bc 1a15 1dbd 32db 72bd 5060 0fbd
00000140: 8cef 4ebd 3403 283d 5b81 7bbd f44c 663d
00000150: f008 c0bc 303a aa3c 9a0a 6b3d 1bce 63bd
00000160: 0183 b8b9 b844 1cbd 9a80 4b3d cc3a 6c3d
00000170: 5766 b7bc cca2 6abb 29e0 8a3c 667d 363d
00000180: 3840 293d d7c9 41bd 3ff2 32bd 7534 d63c
00000190: c669 0f3d 7006 54bc 325a 413d 2086 3a3d
000001a0: 1414 f3bc ff8e b8bc ee94 29bd 60d1 e7bb
000001b0: 5e1d d9bc 2084 7cbc 9fcc fdbc f092 8fbb
000001c0: 6efb 51bd 407d 583d 866d 113d ebf0 433c
000001d0: 5996 3f3c fe2f cdbc 6639 04bc 5a28 863c
000001e0: 2c25 343d f5f3 0cbd 1636 1c3d ed55 6abd
000001f0: ded0 4e3d 70f1 7bbb 8d18 53bc 779a 173d
00000200: d3a1 6abd 5c18 58bd 1906 6cbd a219 9fbb
00000210: 216b 8abc 7564 68bd 3fef 113d d0fe 45bd
00000220: 1c72 63bd 84ed 93bc 0e1a 093d 5eaa 0c3d
00000230: 2f04 28bd af4a 0d3d ee5b 30bd 6030 a4bb
00000240: 017a 8e3c 54c8 da3c 64f9 e2bc 80b9 c73a
00000250: 28b7 093d a6d5 433c e6d6 0f3d 142f 5bbc
00000260: c823 75bd 8035 aabb 2c34 c5bc 4631 5fbd
00000270: 2a83 78bc 903b 19bd 1400 1bbd 7c73 cdbc
00000280: bdeb 39bd 4b28 9c3c a4b5 3f3d 1725 2bbd
00000290: 5ec8 243d 5bc5 4a3d c300 5a3b 4886 1b3d
000002a0: 6861 ebbb 1821 28bd c07d 593d a0aa 493c
000002b0: f71e 433d bcdf 39bc df7a 69bd f6e5 8cbc
000002c0: 7fea 19bd f026 033d 2183 19bc 6f95 45bd
000002d0: 4134 bdbb f92d 35bd e742 3fbd c9df 1abd
000002e0: 6932 1b3d 8fca 0fbd b1bd efbc 60aa 163b
000002f0: 3564 51bd b044 f63b 263a 72bc 00ec 303d
00000300: 557f b43c 4eb0 723c a429 babc eb49 8bbb
00000310: fb89 c8bc 10dd a5bc 27a6 fc3c 8e14 2abd
00000320: e612 283d 9cb0 7cbd 74d9 403d 719a 5ebd
00000330: 0079 dc39 8985 ff3b 9b3c ed3c c481 6a3d
00000340: 3edd 27bd ad6c 6abd ce77 25bd 8c2a cebc
00000350: d86f 83bb 2e53 413c 0629 d93c 98fd 48bb
00000360: 8adf 423d c7ba 74bd 5a8a d9bb 7445 45bd
00000370: f6ac b13c 1cc1 a5bc 51be 3a3d 3f9a 103d
00000380: 51f7 96bc 301d 9cbb bd26 4bbd d935 263b
00000390: 0c23 b0bc ce30 103d 7290 d23c 4035 7cba
000003a0: a224 543d e266 303d 36e4 ffbc fa8b 483d
000003b0: 5778 0cbd e269 a4bc 097f f23c 0a50 fb3c
000003c0: 1080 5f3c 956b 503d c2a0 123d 8a47 813c
000003d0: 8ac0 3c3d 46d6 adbb 53d5 e73b f3c0 16bd
000003e0: 3857 b13c add7 01bd ef5a 0c3d 4a8e 9dbc
000003f0: 4675 c9bc fe0e 3fbd 87a5 81bc 20b0 c43b

layers.1.bias f4 [300]
-0.020697977 -0.0026015218 -0.005015894 -0.00897864 -0.00085846294 -0.025577536 -0.010814524 -0.0073230774
0.031739946 -0.007169876 0.050114177 -0.038897585 0.12031345 -0.037359707 0.03899285 -0.020293472
0.04310929 -0.044198193 -0.0063819587 0.007750188 0.0073097176 -0.03698961 0.017189607 0.07241102
-0.03439157 -0.013114724 -0.013739776 -0.0443749 -0.004246293 0.02905214 -0.02405723 0.03978179
-0.01054154 0.021886783 -0.0044452273 0.04057418 0.045762867 -0.003519528 -0.009542822 -0.039631896
-0.026623845 -0.048884176 -0.03712735 0.001795594 0.0092614535 0.0033924605 -0.03521773 0.09610639
-0.020587428 0.016455082 0.0576119 0.08476491 -0.017815791 0.03491085 0.014467691 -0.039992355
-0.013009369 0.029193237 -0.015026776 0.04286937 0.01765743 0.09737902 0.04474612 -0.015374756
-0.015170057 -0.05147583 -0.020717232 0.029261192 0.11541908 -0.021012498 0.11563203 -0.0061555216
0.011275283 0.036062896 -0.03443366 0.0017667125 -0.022526676 0.013901404 -0.0446774 0.0093982
0.04752003 0.03998258 0.114893004 -0.017561538 0.026953649 -0.01106682 0.027086858 -0.07317039
-0.003106978 0.02628811 0.0059544127 0.13261694 0.0039621787 0.017197646 0.034473214 0.038221672
-0.04386655 0.019911408 -0.034026675 -0.012576969 0.12439167 0.0065139676 -0.04524081 0.05330289
-0.022313021 0.01841506 -0.028006976 0.032269135 -0.04018829 -0.038993377 -0.0076135234 -0.030349448
0.025210869 0.01896281 -0.03454696 0.038658354 -0.041815463 0.0341207 0.10503406 -0.02160218
-0.0010737951 -0.023790441 -0.027271496 -0.04096168 0.025956452 -0.029700292 -0.015517965 0.017583553
0.018187698 0.0015253634 0.041223504 -0.012181107 0.020907179 -0.029906135 0.017829783 0.03910096
-0.030729951 0.02453438 0.044583786 -0.058936246 -0.017485537 -0.014850761 -0.05256695 0.008694434
-0.042109646 -0.035991203 0.022045627 -0.029041212 -0.011336096 0.016944446 0.04256324 -0.0029372869
-0.04802774 -0.029268771 -0.034589387 0.011521697 0.038766503 -0.026638344 -0.0034081102 -0.045399573
0.032091808 0.0017272815 0.027259387 0.036798317 -0.030557876 0.042529956 0.06950069 -0.0019143574
-0.0159904 0.036559287 -0.034695365 0.0044387775 -0.046034593 0.06594121 0.040879905 0.017922392
-0.025138179 -0.028745009 0.015321586 0.012875551 -0.004315788 0.100021124 0.10400702 0.032057326
0.120046236 0.07131977 0.016683538 0.020242793 -0.049218807 0.047560636 -0.016474837 0.0014170737
-0.03464786 -0.04401845 0.12789717 -0.023045687 -0.007939654 0.032739237 0.010605296 -0.027350992
-0.015588246 -0.035821848 -0.051966734 0.005034023 -0.034894906 -0.0410647 0.058500424 0.016010767
-0.030454414 0.067128055 -0.03501516 0.056886896 -0.037491776 -0.0005388777 -0.017229991 0.026502924
-0.040999714 0.03967012 0.0042143934 -0.0328414 0.038940873 -0.01959349 -0.018192926 -0.039235394
0.042189028 0.037975114 0.009164376 -0.0315647 -0.001861095 -0.0063569867 0.0791824 -0.027082738
-0.00993443 -0.016761512 -0.052114137 -0.0047944468 -0.018273931 0.06084554 0.03337879 -0.032490194
-0.030413674 0.037006475 0.07771934 -0.04797862 0.025774293 -0.018526739 -0.055218525 0.087000966
0.016750243 -0.04930228 -0.03532655 -0.02993711 0.051454205 -0.012645839 -0.073967144 0.010048422
00000000: ce8e a9bc 4b7e 2abb 5e5c a4bb 251b 13bc
00000010: 790a 61ba fb87 d1bc 672f 31bc 6df6 efbb
00000020: bf01 023d 47f1 eabb 8644 4d3d 1353 1fbd
00000030: e666 f63d 7e06 19bd f7b6 1f3d 7f3e a6bc
00000040: 5e93 303d 2a09 35bd c01f d1bb 4af5 fd3b
00000050: 5b86 ef3b 6b82 17bd 38d1 8c3c 3b4c 943d
00000060: 2dde 0cbd 24df 56bc cc1c 61bc 75c2 35bd
00000070: 7d24 8bbb c1fe ed3c ab13 c5bc 3bf2 223d
00000080: 6cb6 2cbc e94b b33c 45a9 91bb 1d31 263d
00000090: d871 3b3d e2a7 66bb 7f59 1cbc 0e55 22bd
000000a0: 401a dabc c63a 48bd d912 18bd 235a eb3a
000000b0: 5abd 173c 0b54 5e3b 7740 10bd 6dd3 c43d
000000c0: f7a6 a8bc cfcc 863c 75fa 6b3d 3a99 ad3d
000000d0: 6cf2 91bc aefe 0e3d e509 6d3c 06cf 23bd
000000e0: 4025 55bc a826 ef3c de32 76bc cb97 2f3d
000000f0: 51a6 903c a76e c73d b547 373d 67e6 7bbc
00000100: d58b 78bc 52d8 52bd 2fb7 a9bc 2bb5 ef3c
00000110: d760 ec3d 6722 acbc 7cd0 ec3d 42b4 c9bb
00000120: f7bb 383c b0b6 133d 4f0a 0dbd 0991 e73a
00000130: dd89 b8bc b7c2 633c a6ff 36bd e8fa 193c
00000140: 5da4 423d c6c4 233d 064d eb3d 37dd 8fbc
00000150: e6cd dc3c 9b51 35bc 42e5 dd3c 5cda 95bd
00000160: 719e 4bbb 2a5a d73c 3c1d c33b bccc 073e
00000170: 2ad5 813b 14e2 8c3c c933 0d3d 548e 1c3d
00000180: 69ad 33bd 401d a33c 8e5f 0bbd a20f 4ebc
00000190: 0fc1 fe3d 1f73 d53b 6d4e 39bd 2254 5a3d
000001a0: ccc9 b6bc 2edb 963c e36e e5bc a42c 043d
000001b0: 7a9c 24bd 85b7 1fbd dd7a f9bb 689f f8bc
000001c0: 0687 ce3c e557 9b3c 1d81 0dbd 3958 1e3d
000001d0: b146 2bbd 26c2 0b3d 191c d73d 0ef7 b0bc
000001e0: 96be 8cba 2ce4 c2bc 7968 dfbc 6fc7 27bd
000001f0: a0a2 d43c 074e f3bc 103f 7ebc 620b 903c
00000200: 5efe 943c b4ee c73a fad9 283d 4493 47bc
00000210: 8845 ab3c b6fd f4bc c40f 923c 5428 203d
00000220: 61bd fbbc 53fc c83c 7d9d 363d 2267 71bd
00000230: d43d 8fbc 9b50 73bc 7150 57bd 1973 0e3c
00000240: 2a7b 2cbd 836b 13bd 0899 b43c d6e7 edbc
00000250: 08bb 39bc 14cf 8a3c cb56 2e3d 7f7f 40bb
00000260: bcb8 44bd 10c5 efbc 9aad 0dbd 80c5 3c3c
00000270: a0c9 1e3d a838 dabc 9a5a 5fbb e7f4 39bd
00000280: b372 033d f365 e23a 144f df3c d5b9 163d
00000290: 8354 fabc e433 2e3d 6156 8e3d 2deb faba
000002a0: 4dfe 82bc 31bf 153d ba1c 0ebd 2a73 913b
000002b0: c58e 3cbd 2f0c 873d b071 273d fbd1 923c
000002c0: 95ee cdbc a77a ebbc 6407 7b3c faf3 523c
000002d0: 746b 8dbb e0d7 cc3d a201 d53d 8b4e 033d
000002e0: cdda f53d 1910 923d eaab 883c 37d4 a53c
000002f0: a999 49bd f1ce 423d 3df6 86bc 1abd b93a
00000300: eaea 0dbd b14c 34bd 7af7 023e 4fca bcbc
00000310: 5315 02bc 9419 063d d6c1 2d3c 300f e0bc
00000320: d865 7fbc eeb9 12bd 12db 54bd 72f4 a43b
00000330: f6ed 0ebd 7533 28bd 249e 6f3d 0329 833c
00000340: 897b f9bc 6f7a 893d 0e6c 0fbd 3c02 693d
00000350: fa90 19bd 7843 0dba e925 8dbc a91c d93c
00000360: 51ef 27bd 237d 223d e518 8a3b b484 06bd
00000370: 7780 1f3d 8782 a0bc 5509 95bc 4bb5 20bd
00000380: 67ce 2c3d cb8b 1b3d 2e26 163c fd49 01bd
00000390: fcef f3ba 454e d0bb 622a a23d 9edc ddbc
000003a0: 05c4 22bc 704f 89bc a275 55bd bc1a 9dbb
000003b0: 36b3 95bc 2c39 793d 33b8 083d 7014 05bd
000003c0: 1926 f9bc 1a94 173d 512b 9f3d 3b85 44bd
000003d0: 9c24 d33c 63c5 97bc d22c 62bd 902d b23d
000003e0: ce37 893c 30f1 49bd 93b2 10bd ac3e f5bc
000003f0: a5c1 523d 7e30 4fbc 167c 97bd 23a2 243c

action_layer.weight f4 [1, 300]
-0.0006102071 -0.019441908 -0.0036270884 -0.1786957 -0.00116637 0.0030444444 -0.21601683 -5.358682
-0.38703254 -0.21562685 -0.16406444 -0.13263263 0.107423946 -0.19676463 0.006589258 0.0008533655
-0.17692523 -0.63831294 -0.13524242 0.41657022 -0.34466136 -0.82693255 -0.16850726 0.14726391
-0.2356382 -0.75905347 -0.41102493 -0.5198567 -0.5320928 -0.1168495 -1.415212 -0.23063873
0.00093444664 -0.5884244 -0.26535714 0.10422695 -0.14648281 -0.00014819767 -0.2057353 0.000970636
-0.17053925 -0.16840453 -0.14879817 -0.28062573 0.008993903 -0.2602611 0.0018364752 0.10470709
-0.0019724458 -0.2131873 0.13534212 -0.39228478 -0.16377841 -0.1632132 -0.39270872 -0.0020429576
0.002507689 -0.20514405 0.13590634 -0.0008081405 -0.16550183 0.16560471 -0.21363024 0.0017110623
-0.12309063 -0.11163953 -0.14304464 0.120786764 0.10867088 -0.18304697 0.12720305 0.26608709
-0.14621222 0.0017507222 0.0005627688 -0.041082375 -0.020166568 -0.123765945 -0.13459983 -0.1950384
0.10363467 -0.49555948 0.10216311 -0.22944412 -0.3514798 -0.16705513 -0.23168735 -0.14590019
0.0040554246 -0.18786134 -0.12563704 0.42859513 -0.21150286 -0.10266294 0.11010818 -0.08037357
-0.0017498459 -1.5007746 -0.0013781778 -0.19507654 0.14672631 -0.19299114 -0.00090135407 -0.33449307
-0.051922143 0.00054297096 -0.0012197102 0.1165883 0.0020677634 -0.0012684881 -0.7114759 -0.17044675
-0.0010214099 -0.23534876 -0.104345225 0.5972469 -0.23492165 -0.3617916 0.14513002 -0.16423817
-0.18426411 -0.31943583 0.013495132 0.001934952 0.0006650192 0.0022861054 -0.14370999 -0.663977
-0.0025214972 -0.15033989 -0.0008035325 -0.26354378 -0.25777948 -0.29396993 -0.2058551 -0.25894874
-0.8153693 -0.1748781 -0.3871673 -0.16392404 -0.0014468336 -0.2625088 0.0031970649 -0.12904769
0.0005188412 -0.17372042 0.008586062 0.00070685585 -0.46482855 -0.0006507284 -0.0012608567 -0.6451549
-0.2019858 -0.2294417 -0.0015985104 -0.0019682443 0.10434643 -0.31483197 -0.17846605 -0.23786505
-0.24395983 0.001256294 -0.26616952 0.00017063925 -0.93031573 -0.16769463 0.14992827 -0.12146686
-0.1809576 -0.18396467 -0.19517104 -0.18707357 0.0012223865 0.114196666 -0.041786276 -0.21382779
-0.42338702 -0.33619657 -0.0012818434 -0.36781043 -0.18503381 0.1054697 0.16080157 -0.14836173
0.10696581 0.103324935 -0.20009635 -0.43551508 -0.59926283 -0.21573408 -0.1198071 -0.047705133
-0.22609304 0.00030345054 0.10409809 -0.1322789 -0.1305538 -0.16995355 -0.021238348 -0.24512613
-0.001732167 -0.002255175 -0.0021321746 -0.15427373 0.0012910427 -0.14942549 -0.3229878 -0.24012911
0.28750318 0.28555274 -0.36853382 -0.39291337 -0.20751376 0.4478124 -0.17100818 0.0023292075
0.00012827809 -0.001923601 -0.2295358 -0.34422547 -0.20261665 -0.21228127 -0.0011678593 -0.35612583
-0.17060395 -0.074496545 -0.17049962 -0.22425264 -0.38211277 0.36951795 -0.59573644 -0.10322068
-0.16214567 -0.048990157 0.29954597 -0.18103938 0.00081064267 -0.6865302 -0.1815627 -0.21889639
-0.0013986771 -0.16739891 0.10219979 -0.102623455 0.100676306 -0.0013650836 -0.11304123 0.10324443
-0.14149183 0.00094879774 0.00028644712 -0.2141117 0.102241315 0.0017136309 1.7857367 -0.4487315
00000000: 4ef6 1fba a344 9fbc 72b4 6dbb 01fc 36be
00000010: e2e0 98ba 4d85 473b 8433 5dbe 537a abc0
00000020: 2129 c6be 49cd 5cbe 8200 28be d9d0 07be
00000030: 1601 dc3d ab7c 49be b4ea d73b 64b4 5f3a
00000040: e32b 35be 7a68 23bf fd7c 0abe b148 d53e
00000050: 7477 b0be dab1 53bf 2b8d 2cbe 5acc 163e
00000060: 244b 71be 5451 42bf dc71 d2be 5415 05bf
00000070: 3c37 08bf ca4e efbd ab25 b5bf 8f2c 6cbe
00000080: a7f5 743a fba2 16bf e4dc 87be f074 d53d
00000090: 97ff 15be 8265 1bb9 46ac 52be 4872 7e3a
000000a0: d7a1 2ebe 3d72 2cbe 8c5e 18be 2dae 8fbe
000000b0: 2a5b 133c f140 85be e2b5 f03a ac70 d63d
000000c0: 2644 01bb c64d 5abe 2097 0a3e 8dd9 c8be
000000d0: 87b5 27be 5c21 27be 1e11 c9be 24e3 05bb
000000e0: 0a58 243b 4811 52be 082b 0b3e 64d9 53ba
000000f0: 5079 29be 4894 293e e3c1 5abe b945 e03a
00000100: f116 fcbd 44a3 e4bd 4b7a 12be 0d5f f73d
00000110: d78e de3d aa70 3bbe 8441 023e 913c 883e
00000120: a8b8 15be 7d78 e53a c686 133a fe45 28bd
00000130: 5c34 a5bc 0079 fdbd 8ad4 09be 25b8 47be
00000140: 6a3e d43d f9b9 fdbe e53a d13d 66f3 6abe
00000150: 29f5 b3be 8010 2bbe 733f 6dbe dc66 15be
00000160: 5ee3 843b b95e 40be ffa6 00be d270 db3e
00000170: 3594 58be f340 d2bd 6680 e13d e69a a4bd
00000180: 165b e5ba 6219 c0bf f9a3 b4ba 25c2 47be
00000190: 6c3f 163e 789f 45be d948 6cba ad42 abbe
000001a0: 50ac 54bd 2a56 0e3a afde 9fba d9c5 ee3d
000001b0: 5083 073b 6643 a6ba 4923 36bf 9889 2ebe
000001c0: d4e0 85ba 44ff 70be f3b2 d5bd 2ce5 183f
000001d0: 4d8f 70be c03c b9be f79c 143e 0d2e 28be
000001e0: bbaf 3cbe 188d a3be b01a 5d3c 379e fd3a
000001f0: af54 2e3a 7cd2 153b b628 13be 66fa 29bf
00000200: b43f 25bb b3f2 19be 27a4 52ba 36ef 86be
00000210: acfb 83be 3a83 96be aecb 52be ee94 84be
00000220: 0bbc 50bf 3f13 33be cb3a c6be b4db 27be
00000230: aea3 bdba 8e67 86be d985 513b 1425 04be
00000240: d802 083a c4e3 31be 8eac 0c3c 4b4c 393a
00000250: 02fe edbe a595 2aba 5543 a5ba df28 25bf
00000260: 5ed5 4ebe c4f2 6abe 1c85 d1ba a9fd 00bb
00000270: 95b3 d53d a831 a1be cebf 36be e592 73be
00000280: 9bd0 79be 3baa a43a 5f47 88be a0ed 3239
00000290: 2c29 6ebf 24b8 2bbe cc86 193e 9ec3 f8bd
000002a0: f34c 39be 3c61 3cbe ebda 47be 3790 3fbe
000002b0: 7c38 a03a f1df e93d 1628 2bbd acf5 5abe
000002c0: 2fc6 d8be f521 acbe 8703 a8ba a651 bcbe
000002d0: 8179 3dbe 8000 d83d 2ba9 243e 23ec 17be
000002e0: e410 db3d 069c d33d 0fe6 4cbe d5fb debe
000002f0: 4a69 19bf 65e9 5cbe 6d5d f5bd 7566 43bd
00000300: ef84 67be 7118 9f39 6131 d53d 1f74 07be
00000310: e5af 05be 4e08 2ebe 0bfc adbc 5802 7bbe
00000320: e109 e3ba 8fcb 13bb f4bb 0bbb eff9 1dbe
00000330: 3438 a93a ff02 19be a85e a5be 68e4 75be
00000340: 9e33 933e f833 923e 77b0 bcbe f12b c9be
00000350: 7d7e 54be ab47 e53e c51c 2fbe 9ea5 183b
00000360: 6382 0639 5721 fcba 6f0b 6bbe 523e b0be
00000370: bd7a 4fbe 4360 59be db12 99ba 2056 b6be
00000380: cdb2 2ebe a591 98bd 7497 2ebe 7ca2 65be
00000390: 49a4 c3be 7531 bd3e 2f82 18bf 5d65 d3bd
000003a0: 8409 26be e7a9 48bd 175e 993e 6362 39be
000003b0: 4f81 543a 71c0 2fbf 93eb 39be 6026 60be
000003c0: d153 b7ba 9f6a 2bbe 204e d13d 3f2c d2bd
000003d0: 612f ce3d 9bec b2ba 2982 e7bd d171 d33d
000003e0: 3ce3 10be bdb8 783a 482e 9639 1940 5bbe
000003f0: e563 d13d e99b e03a 0593 e43f 23c0 e5be
