DRL_DDPG/checkpoint_critic.pth (torch_old, 491176 bytes, 5 tensors)

layers.0.weight f4 [400, 3]
0	0xbc01e3fd	-0.007927892
1	0x3d232774	0.039832547
2	0xbafdbd2c	-0.0019358746
3	0x3d836f99	0.0641777
4	0xbd649a8b	-0.055811446
5	0xbb9ca915	-0.0047808983
6	0x3e892004	0.26782238
7	0x3f228ef6	0.6349939
8	0x3e5e13d7	0.21687256
9	0x3f1bd69b	0.60874337
10	0x3afb7aba	0.0019186356
11	0xbe0b9cdf	-0.1363406
12	0xbd375892	-0.0447622
13	0x3f78f2a5	0.97245246
14	0x3dffe131	0.12494124
15	0xbd3514bf	-0.04420924
16	0xbd3e7c48	-0.046505243
17	0x3c3d2bb4	0.011546064
18	0xbf7a72f8	-0.9783168
19	0xbf3bc320	-0.7334461
20	0xbe939862	-0.28827196
21	0x3c2bfcf4	0.01049732
22	0x3d545523	0.051839005
23	0xba63a022	-0.00086832244
24	0xbe3d8bb1	-0.1851032
25	0xbee65003	-0.4498292
26	0x3df7a845	0.12092642
27	0x3e20898a	0.15677467
28	0xbf997212	-1.1987936
29	0xbe750e13	-0.2393115
30	0xbf82b400	-1.0211182
31	0xbfbaee8f	-1.4604052
32	0xbecff1df	-0.4061422
33	0xbf4ee0d9	-0.8081184
34	0x3f49c7dc	0.78820586
35	0x3e4e45f4	0.20143872
36	0x3c612548	0.013741799
37	0x3f611540	0.8792305
38	0x3e9a465b	0.30131802
39	0x3d143953	0.03618748
40	0x3c7a3934	0.015272427
41	0xbb0eb0b0	-0.0021772794
42	0x3da8a7b5	0.082351126
43	0xbb8fa480	-0.0043836236
44	0xbd1f6fe8	-0.03892508
45	0xbfaf2faa	-1.3686421
46	0xbc9f6c45	-0.019460807
47	0x3d7523b2	0.059848495
48	0x3c25ce68	0.010120012
49	0xbc3182f8	-0.010834448
50	0xbd010d30	-0.031506717
51	0xbcb394ca	-0.021921534
52	0x3c272608	0.010201938
53	0xbbd2f4e8	-0.0064378865
54	0xbc2663b7	-0.01015561
55	0xbdc2911f	-0.09500336
56	0x3e0efebe	0.13964364
57	0xbaba5160	-0.0014214925
58	0xbc07742c	-0.008267444
59	0xbc0a3fe0	-0.008438081
60	0x3d0d2b47	0.0344651
61	0xbcf2afaa	-0.029624779
62	0xbca212d0	-0.019784361
63	0x3d0da0ef	0.034577306
64	0x3c75c48c	0.015000474
65	0x3cb33512	0.021875892
66	0x3f2dced7	0.6789374
67	0xbee92d77	-0.455425
68	0xbe02d6b2	-0.12777212
69	0x3bd754d8	0.0065713935
70	0x3d005d09	0.031338725
71	0xbcedce53	-0.029029047
72	0xbf81cabb	-1.0139993
73	0x3fdca44f	1.7237643
74	0xbe8014da	-0.25015908
75	0xbf6e9584	-0.9319689
76	0xbfa6c753	-1.3029579
77	0xbe8cf731	-0.27532342
78	0xbfcd21df	-1.6025962
79	0x3f5c5370	0.86064816
80	0x3e1cee5c	0.15325302
81	0x3f2c3285	0.67264587
82	0x3f57b41d	0.84259206
83	0x3e8114dd	0.2521123
84	0x3c96a4be	0.018389102
85	0x3cbc6a9a	0.02300005
86	0xbd494748	-0.049140245
87	0xbcfe693a	-0.031056035
88	0xbd210828	-0.03931442
89	0xbd0c904e	-0.034317307
90	0xbc9e2600	-0.01930523
91	0x3cdab422	0.026697222
92	0x3d1092d9	0.035296295
93	0xbfa299dd	-1.2703205
94	0xbe710736	-0.23537907
95	0x3d5fa1c2	0.054597624
96	0x3d08484d	0.033272076
97	0xbcd69683	-0.026194816
98	0xbd301305	-0.04298689
99	0xbef6a219	-0.48170546
100	0xbeb6d498	-0.3570907
101	0xbccfc738	-0.02536355
102	0x3d25471d	0.040351022
103	0xbd0c5945	-0.03426482
104	0x3b83c4e8	0.004021276
105	0xbf8daecb	-1.1068968
106	0xbe8c758a	-0.27433425
107	0xbe872a7f	-0.2639961
108	0xbf65830c	-0.89653087
109	0xbf8f55be	-1.1198041
110	0xbeb9550f	-0.36197707
111	0xbe8e2493	-0.2776228
112	0xbec4e78b	-0.38457903
113	0xbde2d230	-0.11075246
114	0xbe6c5c9c	-0.23082203
115	0xbfe29374	-1.7701249
116	0xbed4594d	-0.4147438
117	0xbf7eb831	-0.99499804
118	0x3e309fc2	0.17248443
119	0x3daf680b	0.085647665
120	0xbf6e6f78	-0.9313884
121	0x3d31d8a1	0.043419484
122	0xbdf34423	-0.118782304
123	0xbd266a3b	-0.040628653
124	0x3d1f5789	0.03890184
125	0x3cbb6ac2	0.022878055
126	0xbf93698c	-1.1516585
127	0x3f804fac	1.0024314
128	0x3e36605b	0.17810194
129	0xbf20359f	-0.6258182
130	0xbee36ce5	-0.44419017
131	0x3c60cbb4	0.013720442
132	0xbf26c95a	-0.6515099
133	0x3fa906e1	1.3205224
134	0x3e874354	0.26418555
135	0xbd2e9225	-0.042619843
136	0xbd31e5a0	-0.043431878
137	0x3caa361a	0.02077775
138	0xbf3463aa	-0.70464575
139	0xbde5de15	-0.112239994
140	0xbe2713a7	-0.1631609
141	0xbd7f60ae	-0.06234806
142	0x3f01c732	0.5069457
143	0xbe8ebb5c	-0.2787732
144	0x3fcc9961	1.5984308
145	0xc016f021	-2.3584063
146	0xbf1e5ba5	-0.6185859
147	0x3d5a2a12	0.053262778
148	0x3fcf8701	1.6213075
149	0x3eaece04	0.34141552
150	0xbfc28c71	-1.5199109
151	0x3eb5ae9b	0.35484776
152	0x3e021ab5	0.127055
153	0x3cd513ca	0.026010413
154	0xbbf8b698	-0.0075901262
155	0xbce07087	-0.027397407
156	0xbd193e93	-0.03741319
157	0x3cc27a66	0.023740005
158	0x3c880ff6	0.016609173
159	0xbf309de3	-0.68990916
160	0xbeda16b2	-0.4259544
161	0xbe1d15aa	-0.15340295
162	0xbc9c283a	-0.01906215
163	0x3aec588c	0.001803176
164	0xbb5a2813	-0.0033288046
165	0x3f157299	0.5837799
166	0x3e963055	0.2933375
167	0xbf395479	-0.7239452
168	0xbf857224	-1.0425458
169	0x3fbb40ef	1.4629191
170	0x3e7c0270	0.24610305
171	0xbf82ecbc	-1.0228496
172	0x3d7a3464	0.06108512
173	0xbe8bad00	-0.27280426
174	0xbf9d388c	-1.2282882
175	0xbecdb1ed	-0.4017481
176	0xbeac5c89	-0.3366435
177	0xbfa4560b	-1.2838758
178	0xbca10731	-0.01965675
179	0xbe9b6eb2	-0.3035789
180	0x3c70fc84	0.014708642
181	0x3d0cd1df	0.034379836
182	0x3c214860	0.009843916
183	0x3c07ef40	0.008296788
184	0x3cf19482	0.02948976
185	0xbd08863a	-0.033331133
186	0xbdd9f6f0	-0.10642803
187	0x3fbb6b0a	1.4642041
188	0x3e74b361	0.23896553
189	0x3be23400	0.0069031715
190	0xbd1ec7b8	-0.038764685
191	0xbca4173a	-0.020030607
192	0xbc80f1b4	-0.015740253
193	0xbd3269e7	-0.043558028
194	0xbd272c6e	-0.040813856
195	0xbd77882d	-0.0604326
196	0x3fea9b7a	1.8328698
197	0x3e911dd9	0.28343084
198	0x3f6dbf86	0.92870367
199	0x3ee80cc8	0.4532225
200	0x3eab0479	0.3340185
201	0xbf308ebc	-0.68967795
202	0x3d26ade0	0.040693164
203	0xbe6dd969	-0.23227467
204	0x3d06bb51	0.032893483
205	0x3d1833ab	0.03715865
206	0xbd0c7574	-0.0342917
207	0xbcac0084	-0.02099634
208	0xbfb413aa	-1.4068501
209	0xbeaa195f	-0.33222482
210	0x3a6be580	0.0008998737
211	0xbd379122	-0.044816144
212	0xbb860f90	-0.0040912107
213	0xbfaff5ea	-1.3746922
214	0x3e0a3a58	0.13498819
215	0xbe90e1b9	-0.28297213
216	0xbeb845db	-0.35990795
217	0xbd2f7cf7	-0.042843785
218	0xbeaefd94	-0.3417784
219	0x400fe327	2.2482393
220	0xbf270144	-0.65236306
221	0xbf2e2ff7	-0.6804194
222	0xbf1456e6	-0.57945096
223	0xbe5efb44	-0.21775538
224	0xbe71497f	-0.23563193
225	0x3d4454ef	0.04793256
226	0x3cba719e	0.022759255
227	0xbd203db2	-0.039121337
228	0xbd259c3b	-0.040432196
229	0xbd1dba8d	-0.038507987
230	0xbc047008	-0.008083351
231	0x3d1c3821	0.038139466
232	0x3c0a9a94	0.008459706
233	0x3caeb686	0.021327268
234	0xbee94d00	-0.4556656
235	0x3fc042f7	1.5020436
236	0x3e8f236a	0.27956706
237	0x3c50fc5c	0.01275548
238	0x3d1441e1	0.03619564
239	0xbbd207e8	-0.006409634
240	0xbf52f25d	-0.82401067
241	0xbf29d891	-0.6634608
242	0xbe6a8ff3	-0.22906475
243	0x404d2668	3.2054691
244	0x3ea3f6d3	0.3202425
245	0xbeca47f6	-0.39508027
246	0xbf3391c3	-0.7014429
247	0x3dbd21e2	0.09234978
248	0x3e28b3ea	0.16474882
249	0x3bce90be	0.0063038757
250	0xbd11bafb	-0.03557871
251	0xbc912a9c	-0.017720513
252	0xbef39a9c	-0.47578895
253	0x3f95094c	1.1643462
254	0x3e0c211c	0.13684505
255	0x3d2ef3b9	0.0427129

layers.0.bias f4 [400]
0	0xbe4974bf	-0.19673441
1	0xbde6002a	-0.112305
2	0xbee15df4	-0.44016993
3	0x3f17b604	0.5926211
4	0x3eaee01b	0.34155354
5	0xbee8adea	-0.45445186
6	0x3f05cbbb	0.52263993
7	0xbd755e97	-0.05990466
8	0x3eec6180	0.46168137
9	0x3e08803c	0.13330168
10	0x3f124909	0.5714269
11	0x3f06229b	0.52396554
12	0xbea9f6e7	-0.33196184
13	0xbe5d6fb6	-0.21624646
14	0xbe86994a	-0.26288825
15	0x3f0e11e6	0.5549606
16	0xbe9d8c2a	-0.30771
17	0xbda4b690	-0.080426335
18	0x3ed2fc43	0.41208085
19	0xbea359c2	-0.31904417
20	0xbefffa38	-0.4999559
21	0xbf00d170	-0.50319576
22	0x3f1d6570	0.61482906
23	0xbe84d724	-0.2594539
24	0x3ede3ed3	0.43407306
25	0x3df141b2	0.117801085
26	0xbeba071f	-0.36333558
27	0xbf4a087b	-0.7891919
28	0xbf022dd1	-0.5085116
29	0xbef8f3aa	-0.486234
30	0xbedb356d	-0.42814198
31	0x3e9a3338	0.30117202
32	0xbeee6a3e	-0.4656543
33	0x3e817d34	0.25290835
34	0xbec95ba5	-0.39327732
35	0x3efd84f8	0.4951551
36	0x3f34c353	0.7061054
37	0x3ec98669	0.3936036
38	0xbdaf50b1	-0.085603125
39	0xbc822bc6	-0.015890013
40	0x3ec64ddc	0.38731277
41	0xbe9892f2	-0.2979961
42	0xbe8013ec	-0.250152
43	0x3ecb84a3	0.3974963
44	0x3e76417b	0.24048416
45	0xbed3b52e	-0.41349167
46	0x3f0fbe0a	0.5614935
47	0x3f12c818	0.5733657
48	0xbf863358	-1.0484419
49	0x3e833f26	0.25634116
50	0xbe88498c	-0.26618612
51	0xbe6224bc	-0.22084326
52	0xbee1cd31	-0.4410186
53	0x3e70c295	0.23511727
54	0xbd41efef	-0.04734796
55	0x3ecc9c11	0.3996282
56	0x3e4a301e	0.19744918
57	0x3e99b2f3	0.3001934
58	0x3f7b5acd	0.98185426
59	0x3f306838	0.68909025
60	0xbee7608c	-0.45190847
61	0xbf0d7837	-0.5526156
62	0xbd940fac	-0.07229552
63	0xbed3459d	-0.41264048
64	0xbf067586	-0.52523077
65	0x3bbdc095	0.00579078
66	0xbf98084f	-1.1877536
67	0x3f38ee9e	0.722391
68	0xbef239c6	-0.47309703
69	0xbe5f183e	-0.21786591
70	0xbed4030c	-0.41408575
71	0x3ec6587b	0.3873938
72	0x3f3e20ba	0.74268687
73	0xbfa0dfd2	-1.2568305
74	0x3f75e54f	0.9605302
75	0xbf0d42e2	-0.5518018
76	0xbea298d3	-0.3175722
77	0xbe462a2a	-0.19352022
78	0x3e6f9881	0.2339802
79	0xbe248376	-0.16065773
80	0x3f125f21	0.57176405
81	0xbf2263e5	-0.63433677
82	0x3eaf57c9	0.34246662
83	0xbe8cf643	-0.27531633
84	0xbe970393	-0.29494914
85	0xbeb41ba4	-0.35177338
86	0x3e16518e	0.14679548
87	0xbef51614	-0.47868407
88	0x3d86501f	0.06558251
89	0x3e874d23	0.26426038
90	0xbeca816d	-0.3955187
91	0x3f455461	0.77081877
92	0x3e65283f	0.22378634
93	0x3f6d8f21	0.9279652
94	0x3ed05d81	0.40696338
95	0xbeb62748	-0.35576844
96	0x3c2fdc3a	0.010733658
97	0xbea90210	-0.33009386
98	0xbf3843e3	-0.71978587
99	0x3f912ef4	1.1342454
100	0xbecb6b1e	-0.3973016
101	0x3e6f7dbc	0.23387808
102	0x3ec7b1b9	0.3900278
103	0xbeb5beac	-0.35497034
104	0xbf5c062e	-0.8594693
105	0x3d335e4b	0.043791097
106	0xbddd6332	-0.10809936
107	0xbef0f464	-0.47061455
108	0x3d4784ea	0.04871074
109	0xbeb4f22b	-0.3534101
110	0xbe308fae	-0.1724231
111	0xbea4bf85	-0.32177368
112	0xbf01d0f6	-0.50709474
113	0xbe87fa2e	-0.2655806
114	0x3f23fb3e	0.6405524
115	0x3e80394f	0.25043723
116	0x3de0b426	0.109718606
117	0x3e7c7642	0.24654487
118	0x3e219752	0.1578038
119	0xbe8d0f03	-0.27550516
120	0xbf0e2f3b	-0.5554082
121	0x3f4114a2	0.7542211
122	0xbe93a556	-0.2883708
123	0xbda311e6	-0.07962398
124	0xbed93cce	-0.42429203
125	0xbf04408e	-0.51661
126	0x3de575e6	0.11204128
127	0x3fea0f6b	1.8285955
128	0xbf0dacf3	-0.55342025
129	0x3f13441b	0.57525796
130	0x3f44b1c7	0.76833767
131	0x3ef2ad51	0.47397855
132	0xbe869269	-0.26283577
133	0x3eb0b18c	0.34510458
134	0xbf0da2e8	-0.553267
135	0xbec78328	-0.38967252
136	0x3e7da2a9	0.24769081
137	0xbefc4f34	-0.49279177
138	0x3eb8fc8e	0.36130184
139	0x3f941b77	1.1570882
140	0x3f3f79f3	0.74795455
141	0xbfe91a85	-1.8211218
142	0xbf3960d8	-0.72413397
143	0xbe9c3ef0	-0.30516768
144	0x3e5dde2a	0.2166678
145	0xbf04e882	-0.5191728
146	0x3f72300c	0.94604564
147	0xbf0d0638	-0.55087614
148	0xbf4a87b8	-0.7911334
149	0xbe4917fe	-0.19638059
150	0x3e599816	0.21249422
151	0xbeec2edf	-0.4612951
152	0xbfa0ef9b	-1.2573122
153	0xbe4baaf4	-0.19889432
154	0xbe9152ba	-0.28383428
155	0x3f02d6ab	0.5110881
156	0x3f196c83	0.599312
157	0xbeeac046	-0.45849818
158	0xbe854a60	-0.26033306
159	0xbe2ebfce	-0.17065355
160	0xbe281fe4	-0.16418415
161	0x3e0c034b	0.13673131
162	0x3d851c4c	0.06499538
163	0xbc6a8807	-0.014314658
164	0x3f08a3ce	0.53374946
165	0xbdba8dc0	-0.09109068
166	0xbee34100	-0.4438553
167	0xbe9897b6	-0.29803246
168	0xbf0cb896	-0.54969156
169	0xbe48f53c	-0.196248
170	0xbe889e31	-0.2668319
171	0xbd27d5e4	-0.040975466
172	0x3eb439be	0.35200304
173	0xbf7516a1	-0.95737654
174	0xbeda5c35	-0.42648473
175	0xbe5eb64c	-0.21749228
176	0x3f1b79ff	0.60733026
177	0xbf0097a0	-0.5023136
178	0xbe71e394	-0.2362197
179	0xbebfd666	-0.3746826
180	0x3f121556	0.57063806
181	0x3ee3a9c3	0.44465455
182	0x3f0059fd	0.5013731
183	0x3f0c1205	0.54714996
184	0xbe8692ce	-0.26283878
185	0x3ef670b5	0.48132864
186	0x3d69825d	0.05700909
187	0xbf04d1ab	-0.5188243
188	0xbee085f2	-0.43852192
189	0xbeea9374	-0.45815623
190	0xbdbec3c8	-0.09314686
191	0x3dbdd7c1	0.092696674
192	0xbf07f6c7	-0.5311093
193	0xbefa53a5	-0.4889194
194	0xbeb4223d	-0.35182372
195	0x3e41fdcb	0.1894447
196	0x3ea5bc8f	0.3237042
197	0xbec085ad	-0.37601987
198	0x3f110e98	0.56662893
199	0xbee0b366	-0.4388687
200	0xbef549ae	-0.47907776
201	0x3f000c57	0.5001883
202	0xbf0f9bfb	-0.5609738
203	0x3e0326c6	0.1280776
204	0x3e4c0d1f	0.1992688
205	0x3c5fb7c5	0.013654654
206	0x3e1b3112	0.15155438
207	0xbeadeb40	-0.33968544
208	0x3ec5bfc7	0.38622877
209	0x3e4ba819	0.19888343
210	0xbef69198	-0.48157954
211	0xbf63a784	-0.88927484
212	0xbeae4445	-0.3403646
213	0x3e4814f5	0.19539244
214	0x3f23320a	0.6374823
215	0x3f0ecabb	0.5577809
216	0xbf8a8419	-1.0821563
217	0x3ec456a0	0.3834734
218	0x3e367dc5	0.17821415
219	0xbf5c7241	-0.8611184
220	0xbe1f79aa	-0.15573755
221	0x3f1c73fe	0.6111449
222	0xbe91f955	-0.28510538
223	0x3f684f1e	0.90745723
224	0xbea0fe23	-0.3144389
225	0x3f057786	0.52135503
226	0x3e30eab2	0.17277029
227	0x3e6c5fe8	0.2308346
228	0xbe6a70a8	-0.22894537
229	0xbf661e16	-0.8988966
230	0x3f06372f	0.52427953
231	0xbeba9426	-0.36441153
232	0xbe9ab19c	-0.3021363
233	0xbecfc3a7	-0.40578958
234	0xbf0ad9f4	-0.5423882
235	0xbe923955	-0.28559366
236	0xbf0f8d76	-0.5607523
237	0x3d9bfd60	0.07616687
238	0x3ee12786	0.43975466
239	0x3e236f14	0.15960342
240	0xbf008763	-0.50206584
241	0xbe4c90ff	-0.19977187
242	0xbe1fc1a0	-0.15601206
243	0x3eb942ff	0.36183926
244	0xbe1538fa	-0.14572516
245	0x3c507558	0.012723289
246	0xbc723290	-0.014782563
247	0x3ee45510	0.44596148
248	0x3e4a9c44	0.19786173
249	0x3e5cc30a	0.21558776
250	0x3d0f1438	0.03493139
251	0xbf2f087d	-0.6837233
252	0x3e0232d7	0.12714706
253	0x3e160740	0.14651203
254	0x3e86444f	0.2622399
255	0xbec18339	-0.37795427

state_action_layer.weight f4 [300, 401]
0	0x3d1d7a1f	0.038446542
1	0x3e3c5648	0.18392289
2	0xbfc682c3	-1.5508655
3	0x3e9037e8	0.28167653
4	0x3f47ee4b	0.7809798
5	0x3c6b1f20	0.0143506825
6	0xbebf2bdd	-0.37338153
7	0x3c5e0258	0.0135503635
8	0xbda5de3f	-0.08099031
9	0x3dde01e1	0.10840202
10	0xbe189a9a	-0.14902726
11	0xbd297540	-0.041371584
12	0xbf1b706a	-0.60718405
13	0xbc0cc254	-0.008591253
14	0xbd8a753d	-0.06760643
15	0xbea67698	-0.32512355
16	0x3cdde528	0.02708681
17	0xbd0c3900	-0.034234047
18	0x3ccd7cde	0.025083955
19	0xbd3cac44	-0.046062723
20	0xbce3f479	-0.027826535
21	0x3d044aac	0.032297775
22	0x3e68f8c0	0.2275114
23	0xbd5dabaf	-0.05411881
24	0x3f7c5aa3	0.985758
25	0xbea961ef	-0.3308253
26	0xbe15c5f1	-0.1462629
27	0xbfa7ff22	-1.3124735
28	0x3ca44ebc	0.020057075
29	0x3d2443b6	0.040103637
30	0xbd1d6a41	-0.03843141
31	0xbef1d016	-0.4722907
32	0x3d6ad2d0	0.057329953
33	0xbd294533	-0.04132576
34	0x3c545968	0.012960769
35	0x3d664a3f	0.05622315
36	0xbd7df436	-0.062000476
37	0x3dcaeb73	0.099081896
38	0xbf9181a4	-1.1367688
39	0xbf28c192	-0.65920365
40	0x3cce74b4	0.025202133
41	0x39dacc00	0.00041732192
42	0x3f3b72e9	0.73222214
43	0xbea94073	-0.33056983
44	0x3e7f98d6	0.24960646
45	0x3c0e4a28	0.008684672
46	0xbc45a33e	-0.012062846
47	0x3f1cf3a7	0.61309284
48	0x3ececc75	0.40390363
49	0xbe369196	-0.17828974
50	0xbf12cf38	-0.5734744
51	0xbd61019c	-0.054933175
52	0xbbc568a0	-0.006024435
53	0x3da16746	0.07881026
54	0x3e94343e	0.28946108
55	0xbda15efd	-0.07879446
56	0x3f0a3658	0.5398917
57	0x3eb32fbd	0.3499736
58	0x3ed5fbf8	0.417938
59	0x3ed25e92	0.41087776
60	0x3d2a3f18	0.041564077
61	0xbd6c4041	-0.057678465
62	0xbe57d352	-0.21076706
63	0xbb92f5e0	-0.004484877
64	0xbb3b1ad0	-0.0028549917
65	0x3e582b89	0.21110357
66	0x3fdcfad2	1.7264044
67	0x3e3cf6b2	0.18453482
68	0xbd651f56	-0.055938087
69	0xbf98dbe9	-1.1942111
70	0x3d47d792	0.04878957
71	0x3ecbaceb	0.39780363
72	0x3ebe08c3	0.3711606
73	0xbef9a092	-0.48755318
74	0x3e7e1001	0.24810793
75	0xbb0dc910	-0.0021634735
76	0xbcb92180	-0.022598982
77	0x3d42ff5c	0.04760681
78	0x3f2aea2d	0.66763574
79	0xbb7c6310	-0.0038511194
80	0x3db79a15	0.08964936
81	0xbef507f3	-0.47857627
82	0xbe8da3a3	-0.27663907
83	0xbd1659e3	-0.036706816
84	0x3f615d99	0.88033444
85	0x3cd06500	0.025438786
86	0x3e620a03	0.22074132
87	0xbd0f448d	-0.034977484
88	0xbf8a8342	-1.0821307
89	0xbda7b901	-0.081895836
90	0x3d137d8a	0.036008395
91	0x3e063f7e	0.13110158
92	0xbc992751	-0.018695505
93	0x3e0071c9	0.12543406
94	0x3dc3d0de	0.09561323
95	0x3bf1b880	0.0073767304
96	0x3efb120b	0.49037203
97	0xbd7458d4	-0.059655026
98	0xbfd84200	-1.6895142
99	0x3e128472	0.14308336
100	0x3b9dd0d0	0.004816152
101	0x3dfd282d	0.123611785
102	0x3e2d8ea9	0.16948952
103	0x3cc7b70c	0.024379276
104	0x3f2dbe9c	0.6786897
105	0x3edfa73a	0.4368227
106	0x3e4d0440	0.20021152
107	0xbc3ca4c8	-0.011513896
108	0x3e5624e7	0.20912515
109	0x3d9d05ce	0.07667123
110	0x3e7433af	0.2384784
111	0x3d104a06	0.035226844
112	0xbcd6def2	-0.026229355
113	0x3d3ea270	0.04654163
114	0xbe2aad84	-0.16667753
115	0x3f35b1a9	0.7097421
116	0x3ed03e3f	0.4067249
117	0xbe0298df	-0.12753628
118	0x3ec77e60	0.38963604
119	0x3f148732	0.5801879
120	0x3d56c1d0	0.052430928
121	0x3e999f89	0.30004528
122	0x3d1df552	0.038564034
123	0xbef1bd71	-0.47214845
124	0xbd53ed0a	-0.05173973
125	0x3d3a1498	0.045429796
126	0x3c904718	0.017612025
127	0x3eaa3074	0.33240092
128	0x3d08e0d0	0.033417523
129	0xbc54053f	-0.012940704
130	0x3e773054	0.2413953
131	0xc001c30a	-2.0275292
132	0x3e928b09	0.286217
133	0x3ecb119c	0.39661872
134	0x3dfd5419	0.12369556
135	0x3d74b4d4	0.059742764
136	0x3e3c3884	0.18380934
137	0xbd11c112	-0.035584517
138	0x3e87cee3	0.2652503
139	0x3e294ea2	0.16533902
140	0x3d62c10e	0.055359893
141	0xbf8b751b	-1.0895113
142	0xbd0ae390	-0.033908427
143	0xbe2b8a19	-0.16751899
144	0x3c975c8e	0.01847675
145	0x3ca12038	0.019668683
146	0x3e909e99	0.28246
147	0x3d099c82	0.033596523
148	0xc00f83e5	-2.2424252
149	0xbd0aa704	-0.033850685
150	0xbe016e47	-0.12639724
151	0x3d1baa28	0.03800407
152	0xbe4922fe	-0.19642255
153	0xbd40bbf7	-0.047054257
154	0x3d0f8b1c	0.035044774
155	0x3ce2060b	0.027590772
156	0x3e09be63	0.13451533
157	0xbd5cba7a	-0.053888775
158	0x3cf902fc	0.03039693
159	0x3d00f478	0.031483144
160	0xbc57ab4b	-0.013163398
161	0xbf871b83	-1.0555271
162	0xbe48e10c	-0.19617099
163	0xbb092b5b	-0.0020930383
164	0x3e013396	0.12617335
165	0xbc336188	-0.010948546
166	0xbf3f49ce	-0.7472199
167	0xbe5d5785	-0.21615417
168	0x3e3f315e	0.18671176
169	0xbf08cc78	-0.53436995
170	0xbd332220	-0.043733716
171	0x3e063af4	0.13108426
172	0xbcbd5f4e	-0.023116734
173	0x40145dab	2.318217
174	0x3d578636	0.052618228
175	0x3b415c80	0.0029504597
176	0x3ef7d198	0.48402095
177	0x3d1e9ca2	0.038723595
178	0xbd25be68	-0.04046479
179	0xbcdebebc	-0.027190559
180	0xbd9a514f	-0.0753504
181	0x3c7541cb	0.0149693
182	0x3e692ee0	0.22771788
183	0xbd94e951	-0.07271064
184	0xbd423174	-0.047410443
185	0x3f58d3ff	0.8469848
186	0xbe98b7e6	-0.29827803
187	0x3d2c0d16	0.042004667
188	0x3c39d438	0.011342101
189	0x3d1eeeec	0.038802072
190	0x3e7315b9	0.23738755
191	0xbed08a91	-0.40730718
192	0x3ec1df00	0.37865448
193	0xbf36399f	-0.7118167
194	0x3ed93a64	0.4242736
195	0x3e9ab5d3	0.30216846
196	0xbe588299	-0.21143569
197	0xbca8973e	-0.02057993
198	0xbe7ba8b9	-0.24576081
199	0xbd69b4d8	-0.05705723
200	0x3d61d130	0.055131137
201	0x3e37c3c3	0.17945771
202	0xbd1d1264	-0.038347617
203	0xbe255bb2	-0.1614826
204	0xbd6e9157	-0.058244076
205	0x3ea71b6e	0.32638115
206	0xbd8fef15	-0.07028023
207	0x3cea8108	0.02862598
208	0xbf595250	-0.84891224
209	0xbd046251	-0.032320324
210	0x3d435ad6	0.04769405
211	0xbf7964ee	-0.9741963
212	0xbd57cde5	-0.05268659
213	0xbe3fbee2	-0.1872516
214	0x3e71a40e	0.23597738
215	0xbe55cf52	-0.20879868
216	0x3fcce1f1	1.6006452
217	0x3ec947f7	0.39312717
218	0xbebc6f77	-0.3680379
219	0xbdd9aa04	-0.10628131
220	0xbc9eb4f2	-0.01937339
221	0xbefb6e28	-0.4910748
222	0xbf4c32da	-0.79765093
223	0x3e3f93ae	0.18708679
224	0xbf0d9010	-0.55297947
225	0x3f2887fd	0.658325
226	0x3e2a0a07	0.16605388
227	0xbf843029	-1.0327197
228	0xbb3a2269	-0.0028401858
229	0xbf8b40e3	-1.0879177
230	0x3e7ccc43	0.24687295
231	0xbd457649	-0.04820851
232	0xbcf4f383	-0.029901272
233	0x3ccdca90	0.025121003
234	0xbbb606a0	-0.005554989
235	0xbd1ebd0e	-0.038754515
236	0xbc792a00	-0.0152077675
237	0xbe4f3db3	-0.2023838
238	0xbc507f14	-0.01272561
239	0x3e2dd00c	0.16973895
240	0xbd0a3fc2	-0.03375221
241	0x3e8506db	0.25981793
242	0x3f2e868a	0.6817404
243	0xbef0ced0	-0.47032785
244	0x3cfa6e14	0.030570067
245	0xbedcc0d2	-0.4311586
246	0xbdbfac31	-0.09359015
247	0xbf6ae803	-0.9176027
248	0x3c619e20	0.01377061
249	0x3c922c81	0.017843487
250	0xbe30b5f9	-0.17256917
251	0xbf8a5e9e	-1.0810125
252	0xbe427353	-0.18989305
253	0xbd8df69f	-0.06931805
254	0x3e2feab1	0.17179371
255	0x3d4241fe	0.047426216

state_action_layer.bias f4 [300]
0	0x3dcf4943	0.101213954
1	0xbd5e6073	-0.0542912
2	0xbe10ce44	-0.14141184
3	0xbd041d37	-0.032254424
4	0xbd0fe092	-0.035126276
5	0xbe2016ac	-0.15633649
6	0xbd4fc7e2	-0.050727732
7	0xbe65ff75	-0.2246073
8	0xba605b7f	-0.0008558556
9	0xbe096738	-0.13418281
10	0xbd96882c	-0.073501915
11	0xbe01073b	-0.12600414
12	0xbdd26d44	-0.10274747
13	0xbd44f815	-0.048088152
14	0xbba48b08	-0.0050214566
15	0xbd5d5de7	-0.05404463
16	0xbd922f5c	-0.07137939
17	0xbda1088f	-0.078629605
18	0x3db46b57	0.08809536
19	0x3cad2962	0.021137897
20	0xbda356a9	-0.079755135
21	0xbb160221	-0.0022889453
22	0xbd77b02e	-0.060470752
23	0x3cd21fa8	0.02564986
24	0xbdd77975	-0.10521213
25	0xbdf29175	-0.1184415
26	0xbd7fa9ac	-0.06241767
27	0xbd857443	-0.06516316
28	0x3d79b0ab	0.0609595
29	0xbe0b2da1	-0.13591625
30	0xbda29411	-0.07938398
31	0x3da6948c	0.08133802
32	0xbcdda4e9	-0.027056174
33	0xbd8a181e	-0.06742881
34	0xbe705460	-0.23469687
35	0x3da01882	0.078171745
36	0xbd8f0807	-0.06983953
37	0xbd3ff0b1	-0.0468604
38	0xbd3c7db4	-0.046018317
39	0xbe55c8db	-0.20877402
40	0xbe219d46	-0.15782651
41	0x3c9c3800	0.019069672
42	0x3cb810c1	0.022468926
43	0xbe261f28	-0.16222823
44	0x3af8ee05	0.0018991834
45	0xbd0bbd72	-0.034116216
46	0xbd123cb0	-0.035702407
47	0x3c9e956a	0.019358356
48	0x3a7c922d	0.0009634819
49	0xbd764de7	-0.060132887
50	0xbe29ac9a	-0.16569749
51	0xbda7ddeb	-0.08196624
52	0xbe1ae1c0	-0.1512518
53	0xbbced0b4	-0.0063115004
54	0xbd6142c1	-0.054995302
55	0xbda1b983	-0.07896712
56	0xbd8fcbe8	-0.07021314
57	0xbd5480ed	-0.051880766
58	0xbcd2122e	-0.025643434
59	0x3ea09536	0.3136384
60	0xbe29cb9f	-0.16581582
61	0x3c615862	0.013753982
62	0x3d7666af	0.06015652
63	0xbe4113a2	-0.18855146
64	0xbdbd0a45	-0.092304744
65	0xbd2b5138	-0.041825503
66	0x3d00c42e	0.03143709
67	0x3d2adee6	0.04171648
68	0xbdccc6ec	-0.09998879
69	0x3d7f4d1c	0.062329397
70	0x3c89ee42	0.016837243
71	0xbe1a85fb	-0.15090172
72	0xbde12ebc	-0.10995242
73	0xbe15117c	-0.14557451
74	0x3b8254c4	0.00397739
75	0xbd9cd465	-0.076576985
76	0xbd175b9a	-0.036952592
77	0xbe43645a	-0.1908125
78	0xbd322ec8	-0.043501645
79	0xbdd30d2c	-0.10305247
80	0x3b92be09	0.0044782204
81	0xbc0e76fa	-0.008695358
82	0xbd8c8fcf	-0.06863367
83	0xbd6309ca	-0.055429257
84	0xbdc4ff3d	-0.09618995
85	0x3a615047	0.0008595031
86	0x3e478c62	0.19487146
87	0xbe3117b8	-0.17294204
88	0xbcc4c9b3	-0.024021959
89	0x3d11d56a	0.035603918
90	0x3e5641e8	0.20923579
91	0x3c404cf2	0.011737095
92	0xbde4ccc2	-0.11171867
93	0xbd27d7f3	-0.04097743
94	0x3dae51a0	0.085116625
95	0xbd916645	-0.070995845
96	0xbdcc8728	-0.099867165
97	0x3d4d8b2d	0.050181556
98	0xbc9d3d30	-0.019194216
99	0x3d851ea2	0.06499983
100	0x3b2ebed7	0.0026664042
101	0xbe0842b0	-0.1330669
102	0xbbff615e	-0.0077935895
103	0xbd5e3336	-0.054248057
104	0xbc4eab36	-0.012614062
105	0xbda61c57	-0.08110874
106	0xbd90312f	-0.07040631
107	0xbd79b11b	-0.060959917
108	0x3c58d762	0.013234945
109	0x3d472f32	0.048628993
110	0xbd76d9f3	-0.060266446
111	0xbd27382e	-0.04082506
112	0xbe9cf157	-0.30652878
113	0xbd099c8c	-0.03359656
114	0xbd8f9fbe	-0.0701289
115	0x3b07b8e1	0.0020709562
116	0x3b955165	0.004556822
117	0xbd9511ef	-0.07278811
118	0xbe84301c	-0.25817955
119	0xbd350db4	-0.04420252
120	0xbddbd54d	-0.10734043
121	0xbd84bdae	-0.06481491
122	0xbc208c15	-0.009799023
123	0x3cc7ab43	0.024373656
124	0xbcda7560	-0.026667297
125	0xbd675691	-0.05647904
126	0xbda613f8	-0.081092775
127	0xbd825d38	-0.06365436
128	0xbd60b043	-0.054855596
129	0xbcff87fb	-0.03119277
130	0xbc591f9b	-0.013252164
131	0x3ee675d8	0.45011783
132	0xbd7ed8fc	-0.06221865
133	0xbc7a7ee8	-0.015289046
134	0xbd4ef101	-0.050522808
135	0x3c779c01	0.015112878
136	0xbd93e771	-0.07221878
137	0xbb1d9913	-0.0024047538
138	0xbbf01581	-0.007326782
139	0xbd2e770e	-0.04259401
140	0xbd8ecd6a	-0.069727734
141	0xbd88972f	-0.06669461
142	0xbd59aaf8	-0.053141564
143	0xbb9f8b31	-0.004868888
144	0xbcbc4e86	-0.022986662
145	0xbdd57a7e	-0.10423754
146	0xbd8404ff	-0.064462654
147	0xbd1456ea	-0.0362157
148	0x3c87cedb	0.016578129
149	0xbce611ac	-0.028084598
150	0xbda6e950	-0.081499696
151	0xbde9362b	-0.11387285
152	0x3c432e56	0.011912903
153	0xbd345335	-0.044024665
154	0xbc9d7f13	-0.019225633
155	0xbbf3d73a	-0.0074414285
156	0xbc8ceb01	-0.017201902
157	0xbdcffcfa	-0.10155673
158	0xbc2851ce	-0.01027341
159	0xbc9e9c59	-0.019361662
160	0xbd0915e6	-0.03346815
161	0xbd91701e	-0.07101463
162	0xbc038a87	-0.008028633
163	0xbd01fb59	-0.031733844
164	0xbcc95b9a	-0.024579812
165	0x3dba109e	0.09085201
166	0xbdb11835	-0.08647195
167	0xbcfaf9e0	-0.030636728
168	0xbda0116b	-0.07815822
169	0xbd5e5990	-0.054284632
170	0xbd258ef8	-0.04041955
171	0xbd0ed4b8	-0.034870833
172	0xbcb36e27	-0.02190311
173	0xbdfcdb11	-0.12346471
174	0x3e57dc27	0.21080075
175	0xbd46cf97	-0.048537817
176	0xbd884ac9	-0.06654889
177	0x3e914bd5	0.28378168
178	0xbda7a8f2	-0.08186521
179	0xbce247b9	-0.02762209
180	0xbe3d1aa2	-0.18467191
181	0x3da84ee4	0.08218172
182	0xbde702f1	-0.11279858
183	0xbe1191b2	-0.14215735
184	0xbc5aa9f8	-0.013346188
185	0x3d4440f9	0.047913525
186	0xbd7fe816	-0.062477194
187	0xbe32fe2b	-0.1747977
188	0xbdfdba39	-0.12389035
189	0xbc13f8f0	-0.009031519
190	0xbda23373	-0.079199694
191	0xbd491c31	-0.04909915
192	0xb9f80b39	-0.00047310608
193	0xbdd40bd8	-0.103538215
194	0x3eaa78c1	0.33295253
195	0xbdf5d1ce	-0.12002908
196	0xbe3a1f98	-0.18176115
197	0xbc9b8252	-0.01898304
198	0xbd9587f1	-0.073013194
199	0xbc3964dd	-0.011315552
200	0xbd814e0b	-0.06313714
201	0x3cfca044	0.03083814
202	0xbe0bd70c	-0.13656253
203	0x3e159fd5	0.14611752
204	0xbd451004	-0.048110977
205	0xbd939036	-0.072052404
206	0xbd758e00	-0.059949875
207	0xbd97b072	-0.07406701
208	0x3ca9b9da	0.020718504
209	0xbda02d48	-0.07821137
210	0xbc6a7f38	-0.014312558
211	0x3e9625bd	0.29325667
212	0x3d09f42e	0.033680134
213	0xbe024824	-0.12722832
214	0xbd1c0585	-0.0380912
215	0xbd807829	-0.06272919
216	0xbe26f16b	-0.16303031
217	0xbcfc1d49	-0.030775683
218	0x3c88d796	0.016704362
219	0x3d27eda9	0.040998135
220	0xbd29c383	-0.04144622
221	0x3f1f3e0a	0.6220404
222	0xbd483d33	-0.04888649
223	0x3c8ce897	0.017200751
224	0xbda9efb7	-0.08297675
225	0xbdfc59c9	-0.12321813
226	0xbdf2bd4b	-0.11852511
227	0xbe10962e	-0.14119789
228	0xbdd44a20	-0.10365701
229	0xbd373cc2	-0.044735678
230	0xbdf9ff15	-0.12206856
231	0xbd5095bf	-0.05092406
232	0xbe4c8023	-0.19970755
233	0xbd2e850b	-0.04260735
234	0xbd8e76f0	-0.06956279
235	0xbe0a0385	-0.13477905
236	0xbda27495	-0.079323925
237	0xbd708b89	-0.05872682
238	0xbd29e1f0	-0.041475236
239	0xbc7e2878	-0.015512578
240	0x3cbc6a52	0.022999916
241	0xbda296a1	-0.079388864
242	0xbd3aa5c9	-0.04556826
243	0x3e9b4d8e	0.30332607
244	0xbe3f16af	-0.18660997
245	0xbd65ac9c	-0.056072816
246	0xbdd1deee	-0.102475986
247	0xbe14172f	-0.14461969
248	0xbd0f6e48	-0.03501728
249	0xbc928b15	-0.017888585
250	0xbdb1e589	-0.086863585
251	0xbdb8194d	-0.08989201
252	0x3dd28bf3	0.102805994
253	0xbc512d43	-0.012767139
254	0xbe404d6f	-0.18779539
255	0xbca01803	-0.0195427

value_layer.weight f4 [1, 300]
0	0x3fa262ee	1.2686441
1	0x3c12364c	0.008924078
2	0xbc303ec9	-0.010757157
3	0x3cd73b11	0.026273282
4	0xbb8b86cc	-0.0042580124
5	0x3cac2768	0.021014884
6	0x3be92e10	0.007116087
7	0x3cc60367	0.024171544
8	0xbba6c889	-0.0050898236
9	0x3aa77c2e	0.0012778097
10	0x3ccde482	0.025133375
11	0xb91d8e25	-0.0001502564
12	0xbc369b04	-0.011145357
13	0x3ccdafa1	0.02510816
14	0x3a16afcc	0.00057482417
15	0x3cb96391	0.022630485
16	0x3f2cf186	0.67556036
17	0x3d0c9a33	0.034326743
18	0xbdecb587	-0.11558061
19	0x3b4d8b20	0.0031363443
20	0xbd930e17	-0.07180422
21	0x3bc660bf	0.0060540135
22	0x3c80dc44	0.01573003
23	0x3f8fe102	1.1240542
24	0xbac89d21	-0.0015305617
25	0xbfe9a80f	-1.8254412
26	0xbc4ebf9b	-0.0126189245
27	0x3cedb990	0.029019147
28	0x3fa95a84	1.3230748
29	0x3c0100b5	0.007873704
30	0xc0374f2a	-2.8642068
31	0xbe4ea92b	-0.2018172
32	0xbc268662	-0.010163875
33	0x3cd1e880	0.02562356
34	0xba693633	-0.0008896321
35	0x3f27dd80	0.6557236
36	0x3cd36bc5	0.025808224
37	0xbc6b7d25	-0.0143730985
38	0xbd003e78	-0.031309575
39	0xc0b7843c	-5.734892
40	0xbf0abed5	-0.54197437
41	0xbf29805a	-0.66211474
42	0xbbad9d8d	-0.0052983225
43	0xbc20a83a	-0.009805733
44	0x3cf2640b	0.02958872
45	0x3ccf2a10	0.025288612
46	0xbc0ea4b9	-0.008706265
47	0xbbdc8177	-0.0067293006
48	0x3c525228	0.01283697
49	0xbe838013	-0.2568365
50	0xb9c285eb	-0.0003710234
51	0x3bf3db00	0.0074418783
52	0xbb40b4b3	-0.002940458
53	0xbc9c310b	-0.019066354
54	0xbc130c3b	-0.008975084
55	0x3cf8db2c	0.030377947
56	0x3cfbdde7	0.03074546
57	0x3c3ac2d4	0.01139899
58	0xbcdb2d66	-0.026755046
59	0x3fcceadb	1.6009172
60	0x3f8d7419	1.1051055
61	0xbc9042fa	-0.017610062
62	0xbea4f6df	-0.32219598
63	0x3ec417f4	0.38299525
64	0xbabe71a6	-0.001452972
65	0x3cca8ab6	0.024724346
66	0xbfc9f697	-1.5778378
67	0xbbb0d629	-0.0053966236
68	0xbd857166	-0.0651577
69	0xbfdb0d30	-1.71134
70	0xbb8c7bae	-0.0042872047
71	0xc063d9e8	-3.560175
72	0xbfb84ea0	-1.4398994
73	0x3d191cc6	0.037380956
74	0xbc1f6647	-0.009728975
75	0xbb9ecb56	-0.004846017
76	0x3a58fdbc	0.00082775555
77	0xbf55af29	-0.834704
78	0x3c4ce21a	0.012505079
79	0xbc737f70	-0.014861926
80	0x3c9703a8	0.01843436
81	0xbc2d82e2	-0.010590287
82	0x3bd1e764	0.0064057577
83	0x3c2d2ca0	0.010569721
84	0x3c77eff7	0.015132896
85	0xbf27b347	-0.6550793
86	0x3f7c0941	0.9845162
87	0xbbe61fa2	-0.007022814
88	0x3c9ec5ef	0.019381491
89	0xbbcf2837	-0.0063219327
90	0x40a93bfe	5.2885733
91	0xbba9d9f6	-0.0051834537
92	0xbb0d3b9e	-0.0021550427
93	0x3bc10a03	0.005891086
94	0x3fb47c76	1.4100482
95	0x3cced65d	0.0252487
96	0x3ccfc8a9	0.025364237
97	0xbf420a78	-0.75797224
98	0xc0084b1b	-2.129584
99	0xbdf69d60	-0.12041736
100	0xbe55af52	-0.2086766
101	0x3edac222	0.42726237
102	0x3ce4d6c6	0.027934443
103	0xbb943621	-0.004523054
104	0x3c2a6914	0.010401029
105	0xbce97e7a	-0.028502692
106	0x3cc4bb04	0.024014957
107	0xbf6e4788	-0.930779
108	0x3cf48c81	0.029852154
109	0x3fc972aa	1.5738118
110	0x3f7ddfea	0.9916979
111	0xbc12565f	-0.008931725
112	0x3e6105b0	0.21974826
113	0x3c8ca0ac	0.017166458
114	0xbcf94045	-0.030426154
115	0xc0064e64	-2.0985346
116	0xbe79607c	-0.24353212
117	0x3f024020	0.50879097
118	0x40533c16	3.3005424
119	0x3fa7ab66	1.3099182
120	0x3c8c4819	0.017124223
121	0x3a22b9e8	0.0006207512
122	0xbcd1a95e	-0.025593456
123	0xbb8114a4	-0.003939228
124	0xbb038df6	-0.002007363
125	0xbbe21bd0	-0.006900288
126	0xbb8c1234	-0.004274631
127	0x3ce971b1	0.028496595
128	0xbcd0fd08	-0.02551128
129	0x3c32a880	0.010904431
130	0x3c9185dc	0.017764024
131	0x40dde38e	6.9340277
132	0x3c0c0523	0.008546147
133	0x3cc8e2a9	0.024522142
134	0xbd003a35	-0.03130551
135	0xbf3734d2	-0.7156497
136	0x3b14562f	0.0022634377
137	0x3cd48809	0.025943773
138	0x3ce5393b	0.027981391
139	0xbcf7e42d	-0.03026017
140	0x3ce2c746	0.027682912
141	0x3cf08c69	0.029363828
142	0x3cc6d188	0.024269834
143	0xbe53754f	-0.20650218
144	0x3c42a378	0.011879794
145	0x3d18adfb	0.037275296
146	0x3cf888c0	0.030338645
147	0xbe7a6a35	-0.24454577
148	0xbdb1960e	-0.08671199
149	0xbdd3f8aa	-0.10350163
150	0xbc6b98be	-0.014379678
151	0x3b38919d	0.0028162964
152	0xbc0a95f2	-0.008458601
153	0xbb8a39b9	-0.004218307
154	0xbcdc7ac9	-0.026914017
155	0xbc403fe8	-0.011733986
156	0xbf7a1e9f	-0.97702974
157	0xbc0b82ef	-0.008515104
158	0xbed0ce09	-0.40782192
159	0xbc8b3044	-0.016990788
160	0xbcff6236	-0.03117476
161	0x3ce382e8	0.027772382
162	0x3cbf7961	0.023373308
163	0xbd00b6e7	-0.03142443
164	0xbbb10fab	-0.005403479
165	0xbf42b735	-0.760608
166	0xb9312422	-0.00016893496
167	0x3d28b36d	0.04118674
168	0xbc49e399	-0.01232233
169	0x3b6d5e8d	0.0036219687
170	0x3cdd4141	0.027008655
171	0x3c4b861e	0.012422113
172	0x3cc5002c	0.024047934
173	0xbb8f5d04	-0.004375102
174	0x3f7f9ee2	0.9985181
175	0xbf09801a	-0.5371109
176	0xb3995160	-7.13942e-08
177	0xc0f5d495	-7.6822
178	0x3aa7a56c	0.0012790388
179	0xbcf64ae1	-0.030065002
180	0xc109b1d4	-8.605915
181	0xbf1b13be	-0.60577
182	0x3c04bc24	0.008101497
183	0xc051c475	-3.2776158
184	0x3c3c28d0	0.01148434
185	0x3fa7f1b8	1.3120642
186	0xbcf0f9de	-0.029416021
187	0xc0149d80	-2.322113
188	0xc0084b8e	-2.1296115
189	0x3cbb1d67	0.022841169
190	0x3babc2c0	0.005241722
191	0xbaa3c7bd	-0.001249544
192	0xbca61088	-0.020271555
193	0xbf186cd6	-0.5954107
194	0x4001a440	2.02565
195	0xbb721fa6	-0.0036945133
196	0x3d49953f	0.049214598
197	0xbc384884	-0.011247758
198	0x3cef2eae	0.029197063
199	0x3cdd1c84	0.026991136
200	0x3fdc7db3	1.722586
201	0x3c402cad	0.011729402
202	0xbd36d1ed	-0.044633795
203	0xc085fefa	-4.187375
204	0xbcc87955	-0.024471918
205	0xbc217f85	-0.009857063
206	0xbcd33fc1	-0.025787236
207	0x403d1fbb	2.9550617
208	0xbda5069d	-0.08057902
209	0xbce8f684	-0.02843786
210	0x3ceadf81	0.028671028
211	0x3fb9db91	1.4520131
212	0x3c1ff801	0.009763719
213	0xbca90b34	-0.020635225
214	0xbc5fdfbe	-0.013664184
215	0xbb5a00c3	-0.0033264614
216	0x3ce6e6df	0.02818626
217	0x3c593317	0.01325681
218	0xbd93564e	-0.07194196
219	0xbb8bf298	-0.004270863
220	0xbbe95a78	-0.0071213804
221	0x400d74d8	2.2102566
222	0xbbbb3ad5	-0.0057138004
223	0xbfacda9e	-1.3504217
224	0x3a8e924f	0.0010877344
225	0xbf9db34f	-1.2320346
226	0x3b69b9ea	0.0035663792
227	0x3cd77b68	0.026303962
228	0xbc2166c5	-0.009851162
229	0x3ce086d6	0.027408045
230	0x3afa2cbe	0.001908682
231	0xbe1a4b85	-0.15067871
232	0xbfc98000	-1.5742188
233	0xbf10d87a	-0.5658032
234	0x3b337cc8	0.0027387608
235	0xbb3f131e	-0.0029155682
236	0x3d410cd5	0.04713138
237	0x3bed7efd	0.007247804
238	0x3c981c68	0.018568233
239	0xbb9da4f1	-0.0048109223
240	0xbba62e8c	-0.005071467
241	0xbca1acf2	-0.019735787
242	0x3c69f8ff	0.014280557
243	0x4095a264	4.676073
244	0x3b93e8b9	0.0045138267
245	0x3cfb7dd0	0.03069964
246	0x398a8ebe	0.00026427762
247	0x3a8bf9e4	0.0010679332
248	0x3a9885fc	0.001163661
249	0xbc621528	-0.013798989
250	0xbd1a6df3	-0.037702512
251	0xbf87f7cf	-1.06225
252	0xbdf8b7d9	-0.12144441
253	0x3cd883a2	0.026429955
254	0x408208f2	4.063592
255	0xbc47dff4	-0.012199391
