DDPG/checkpoint_actor.pth (torch_old, 489813 bytes, 5 tensors)

fc1.weight f4 [400, 3]
000000 a2 e2 c7 bd 4c 6e 3f bc 27 27 9a bd 64 ff 3e 3c
       -0.09760024 -0.011684012 -0.07526999 0.01165757
000010 2a 25 f8 3c 3e 46 67 bd db 2d af 3c c1 5c ee 3c
       0.030291159 -0.056463473 0.02138417 0.029096963
000020 2c ac 03 bd 64 56 91 bd 18 57 76 bc 38 94 e7 bc
       -0.032146618 -0.07096556 -0.015035413 -0.028268918
000030 4a b6 9f bd 27 76 39 bd 7e c0 7d 3d 61 48 6b 3c
       -0.07798441 -0.045278694 0.061951153 0.014360518
000040 df 86 23 bc aa 0f be 3c 3b fb 0c bb c7 02 31 bd
       -0.009980886 0.023200829 -0.002151205 -0.04321554
000050 1f eb 08 bd 8e 35 04 bd 60 ab 39 bc a4 bb 82 bc
       -0.033427354 -0.032277636 -0.011332363 -0.015958615
000060 05 ea e8 bb 0f 39 30 bd ed f4 ff 3c 9a f9 f7 bb
       -0.0071079754 -0.043023165 0.03124472 -0.0075675966
000070 3d 63 f1 bc 65 b1 cb bb 55 32 14 bd f1 26 33 3d
       -0.029466266 -0.0062162154 -0.036180813 0.04373831
000080 89 96 15 3d 26 9a cb bc 18 49 98 bc ea 12 57 bd
       0.036520515 -0.024853777 -0.018589541 -0.052508272
000090 a7 e9 e8 bc 72 e6 9d 3b 14 c2 1b bd 8b 74 50 bd
       -0.028431727 0.004818731 -0.038026884 -0.050892394
0000a0 a0 f2 48 bb d5 8e 06 3d 72 74 9d bc ba b3 21 bd
       -0.0030662194 0.03285106 -0.019220565 -0.03947804
0000b0 f8 5a 99 3d e6 aa 06 bd af 32 01 3d c2 7c e5 3c
       0.07488054 -0.032877825 0.031542476 0.02801359
0000c0 5e 38 84 bd ad 0f 1f bc b3 d1 ab 3d f0 1d 3d 3d
       -0.06456064 -0.009708327 0.08389606 0.04617113
0000d0 ef f2 0d bc 15 e8 ad 3c 21 c6 bc bd b5 7b d6 bb
       -0.008663877 0.02122883 -0.092174776 -0.0065455087
0000e0 35 30 39 bd 7a 09 8d bd 33 94 9b bc 5e e0 a6 bc
       -0.04521199 -0.06886573 -0.018991565 -0.020370658
0000f0 1a 7e b5 bd 52 36 7a bd bf 23 d7 3c b2 50 23 bd
       -0.088619426 -0.06108696 0.026262162 -0.03987188
000100 3a 64 8a 3b a6 51 4f bd 74 79 2a bc 2a 2e 22 bd
       0.0042233737 -0.050614975 -0.010404933 -0.039594807
000110 0d 9c 43 3d df b1 97 bd 1a a1 b1 ba 26 12 38 bd
       0.047756243 -0.07406973 -0.001355204 -0.044939183
000120 f0 55 80 bd f1 d0 23 3d 58 f7 8a bc f8 c1 f4 bc
       -0.06266391 0.039994184 -0.016963646 -0.029877648
000130 e3 0c b6 bc 08 38 88 bd 17 b3 d0 bc a0 29 7f 3b
       -0.022222942 -0.06651312 -0.025476022 0.0038934723
000140 da 60 f2 bc a7 ec 96 bd 3d b6 6d bd 07 d4 12 bd
       -0.029587198 -0.073693566 -0.058035124 -0.035846736
000150 b6 9a 98 bc 3a 47 cb 3c 37 38 95 bd 18 5b d3 bb
       -0.01862846 0.024814237 -0.07286113 -0.006450068
000160 73 5c 32 bd 12 99 ba 3c 00 fd 2b bd 28 34 d0 bb
       -0.043545198 0.022778068 -0.041989326 -0.0063538738
000170 b7 93 9c bc 52 42 df bb a8 02 fd bc 66 2f 12 bc
       -0.019113405 -0.006813326 -0.030885056 -0.0089224335
000180 43 3e 04 3b e1 cf 31 3d b3 53 80 3d 90 15 db bc
       0.0020178712 0.04341114 0.06265964 -0.02674368
000190 d8 45 0c bc 67 8f c3 bc c4 46 a3 bd 5e ba 5b 3b
       -0.008561574 -0.02387209 -0.07972482 0.0033527832
0001a0 e6 a4 e3 3c 0a ba 91 3c 76 a4 8b bc c3 57 a7 bc
       0.02778859 0.017788906 -0.017046195 -0.02042759
0001b0 98 8f 35 bc 79 c8 08 3d ff 7b 46 3d 37 c5 b5 bc
       -0.011081599 0.03339431 0.048458096 -0.022188766
0001c0 3e a9 0f bd a1 1d 44 3d 73 b0 44 bc 8f b2 84 bc
       -0.03507351 0.04787982 -0.012004959 -0.016198425
0001d0 8b 35 9f 3d a6 7b 9f b8 38 2b 04 3c ed 1d 64 bd
       0.077738844 -7.604742e-05 0.008066945 -0.055692602
0001e0 f2 48 89 bd 58 f7 da bc 92 20 07 bd 4c bb 0d bd
       -0.06703366 -0.02672927 -0.032990046 -0.03460245
0001f0 0f 6a a1 bc ee c3 7f bc c1 9a 91 bd 7d 7b 80 bb
       -0.019703893 -0.015610678 -0.07109595 -0.003920971
000200 f4 17 30 3d 0d f7 57 bc 6e a2 d5 bc 67 fc 12 3b
       0.042991593 -0.01318146 -0.02607843 0.0022428276
000210 97 d4 df bc 90 95 d9 3c f3 4b 22 bd 77 8a d7 bc
       -0.02732305 0.026560575 -0.039623212 -0.026311142
000220 4f 09 10 bd 0e 2d 2f bd f6 61 8d bd ee 66 1b 3d
       -0.035165127 -0.042767577 -0.0690345 0.03793996
000230 dd aa 6b 3d 8f 13 49 bd d0 59 ed 3b 20 f6 2a 3c
       0.057535995 -0.04909092 0.0072433725 0.010434657
000240 db f4 11 bc 03 ed d3 bc 75 86 3b bd 1e 0c 12 bd
       -0.008908476 -0.025869852 -0.045782525 -0.035656087
000250 c3 cb 12 bd a0 81 52 bd 40 f5 1f 3c b6 a0 94 3c
       -0.035838854 -0.05139315 0.009763062 0.01814304
000260 e2 54 e0 3c 18 61 d0 bc 81 6b c1 3c 46 e3 b8 bc
       0.027384225 -0.025436923 0.023610832 -0.02256931
000270 aa 58 48 bd b3 93 2f bd b0 90 d4 bb d0 da c5 bc
       -0.04891268 -0.042865466 -0.0064869747 -0.02415219
000280 af a2 16 3d 7d d3 72 bd 96 d4 44 bd bf 1e 74 3b
       0.03677624 -0.059283722 -0.0480543 0.0037249771
000290 52 be 70 3d 3c 7e 51 bd 9f c7 b7 bb 5c 46 10 bd
       0.058775254 -0.051145777 -0.0056085135 -0.03522335
0002a0 b1 fa c5 bd ea ae 63 3d 71 39 62 bd f1 ae 01 bd
       -0.09666956 0.055586733 -0.05523056 -0.031660978
0002b0 cc ee 89 bc 13 42 92 bd 02 ae d1 bd 0a fa 56 bd
       -0.0168375 -0.07141509 -0.102382675 -0.05248455
0002c0 08 71 7e 3d 8a 8d cb 3c 6b 09 17 bd 51 47 1f 3d
       0.062119514 0.024847765 -0.036874216 0.038886372
0002d0 6e d5 51 bd 06 fb 52 3c 22 f9 25 bd d1 57 52 bd
       -0.051228933 0.012877231 -0.040520795 -0.05135328
0002e0 86 da 66 bb 1a 21 b4 bc e3 ed 92 bc db 02 8c bd
       -0.0035225465 -0.02198844 -0.017935699 -0.06836482
0002f0 d6 8d 37 3d f9 73 a4 bd 6c 23 18 bb 0d 4c be bc
       0.044813 -0.080299325 -0.0023214472 -0.023229623
000300 ca c7 20 bc 15 2c 47 bd f6 78 07 3d 15 3f 14 bb
       -0.009813258 -0.048626024 0.03307434 -0.0022620608
000310 8d d2 c4 3c 2c 67 73 bc af 5d 04 bc 2e e2 5a bd
       0.02402618 -0.014856141 -0.0080789765 -0.053438358
000320 a1 b3 4d bb 2f 8c a5 3c ae dd 8a bc fe ce 3c 3a
       -0.0031387585 0.020208446 -0.016951408 0.0007202475
000330 6c e8 23 bc 44 c8 77 3c 40 a8 9f ba de aa 9b 3c
       -0.010004144 0.015123431 -0.001218088 0.019002374
000340 32 e0 2c bd 8d 65 14 3d 1b 5a 8a bd ea 08 aa bc
       -0.042205997 0.03622966 -0.067554675 -0.020756204
000350 9b 3d 7c bd 60 35 43 bb a5 4b 25 3d c2 c5 03 bd
       -0.06158219 -0.0029786453 0.040355343 -0.03217102
000360 4b 82 9c bd d7 82 18 bd 04 ee 0e bb 19 d1 a7 bd
       -0.07642039 -0.037234154 -0.002180935 -0.08194179
000370 16 9b 10 bd e8 98 59 bd 1a 39 f8 bc b6 35 06 bd
       -0.03530415 -0.05312434 -0.030300666 -0.032766066
000380 cc 68 14 3c df de 8a bc 3a 49 6c bd 93 4d 2b 3d
       0.009058189 -0.016951976 -0.05768702 0.041822027
000390 81 0c 15 3d 28 30 46 bd 00 73 83 39 cf fd 2c bd
       0.036388878 -0.04838577 0.0002507195 -0.04223424
0003a0 61 1b 79 3c 06 12 9d bd 04 1b 8c bd ad 5e 0c bd
       0.015204282 -0.07669453 -0.0684109 -0.034269977
0003b0 08 63 85 bd 39 ba 15 3d f6 62 af 3c 98 6c dc 3b
       -0.06513029 0.03655455 0.021409493 0.0067268126
0003c0 40 29 63 ba 3a 64 ee bc c3 62 bd bc 5b 27 e5 bc
       -0.00086655095 -0.029100526 -0.023118382 -0.027972868
0003d0 c2 47 1f bd 6d 90 30 3d e8 a4 45 bc c3 e3 bc bc
       -0.038886793 0.043106485 -0.0120632425 -0.023057824
0003e0 a8 c7 03 3c 39 a3 80 bd b4 2c 67 3c 27 e7 36 3d
       0.008043207 -0.06281132 0.014109779 0.044654038
0003f0 b5 f0 11 bd 65 08 34 bd 48 9c 55 bd f8 77 96 bd
       -0.035629947 -0.04395332 -0.052150995 -0.07347101

fc1.bias f4 [400]
000000 9b a1 60 be fb ac e3 bc b7 9f 47 3e 35 b9 c9 3e
       -0.21936648 -0.027792444 0.1949452 0.39399114
000010 3d 71 ab 3e f9 8d 31 bd e4 27 8b 3e 1a e3 d1 be
       0.3348483 -0.043348286 0.27178872 -0.40993577
000020 77 d5 c8 3e 47 e5 8f 3e a8 0a b1 be 0d b6 f4 3d
       0.3922536 0.28104612 -0.34578443 0.11948786
000030 72 3f a6 bd cc 2d c2 3e 4d d4 2a 3e 5a cc d3 be
       -0.0811757 0.37925565 0.16682549 -0.41366845
000040 86 df 85 3e 3b dc de bd 22 b0 59 3d 2b e7 94 3e
       0.26147097 -0.108818494 0.05314649 0.29082617
000050 88 db 0c 3f 69 a1 e7 bc a3 16 be be 38 4f 03 3f
       0.5502248 -0.028275209 -0.37126645 0.51292753
000060 bf 15 f8 3e b1 2f ab 3e 95 b0 c3 be f0 16 20 3d
       0.4845409 0.33434823 -0.3822066 0.039084375
000070 5b dc ba be 83 fb 11 bf 6a dc bf be 8f 2b ab 3e
       -0.36496243 -0.570244 -0.3747285 0.3343167
000080 37 19 91 bd c0 32 5d be 92 89 15 3f 35 0b 0a bf
       -0.070848875 -0.21601391 0.5841304 -0.5392335
000090 5b f2 08 bf 45 ca 04 bf 3b b4 43 3e bd 62 f2 bd
       -0.53494805 -0.5187114 0.19111721 -0.11835239
0000a0 aa 3a 72 bb a4 a1 08 3f 46 d6 a7 3e b4 00 50 3e
       -0.0036961236 0.53371644 0.32780665 0.20312768
0000b0 bb 90 aa 3e 60 7f 92 3e 8d 46 68 3d d6 45 dc be
       0.33313546 0.28612804 0.056707907 -0.4302203
0000c0 df 61 0e 3f bb 6a 2b 3e 96 5c a9 be 2e e3 cb 3e
       0.5561809 0.16739933 -0.3307845 0.39821762
0000d0 5c c9 0f bf 12 54 0d 3f 2b 94 c7 3c d5 b4 d0 bd
       -0.56166625 0.55206406 0.024362644 -0.10190741
0000e0 55 e3 44 bc 16 e7 ba 3c b5 cf a7 3d a7 b9 a1 be
       -0.012017091 0.022815268 0.08193914 -0.31586954
0000f0 96 c1 f5 3e 30 e8 f1 3e d7 48 9a 3e 16 1b 8c 3e
       0.47999257 0.47247458 0.30133697 0.27364415
000100 39 b8 84 be 55 01 b7 3e cf 33 a6 3e 26 41 e0 3e
       -0.259218 0.35743204 0.32461402 0.43799704
000110 f0 ea 23 be 4d a8 e9 be 1c f9 1b be 26 78 91 be
       -0.1600759 -0.45636216 -0.15231746 -0.28411978
000120 b8 00 49 3e 53 b0 b3 3e 14 3d d3 3e 41 58 86 3e
       0.1962918 0.35095462 0.41257536 0.26239207
000130 b4 36 b9 be 0d 1d 98 3e 29 58 c2 3d 64 3a 12 bf
       -0.36174548 0.29709664 0.094894715 -0.5712035
000140 8f a5 09 bf fb ba a5 3e 92 4f 1d be 43 10 9c 3e
       -0.5376825 0.32369217 -0.15362385 0.30481157
000150 6d 9e fb 3d 6a e1 91 3e 1d eb aa 3d ea d3 b3 be
       0.12286077 0.2849229 0.083456255 -0.35122615
000160 01 72 63 3e 00 b4 e3 be 93 fc 3d 3d 0a 1a c6 3e
       0.22211458 -0.44473267 0.04638345 0.3869174
000170 cf a6 4c 3e f3 f7 90 3e cb bf 03 3f 34 94 ad 3e
       0.19985507 0.2831417 0.5146453 0.33902133
000180 b8 ef 0e be 60 a6 37 3e 17 9d 3a 3e d9 4c 0c bf
       -0.13958633 0.17934561 0.18223988 -0.5480476
000190 b8 15 60 be ce fb a1 be 97 f2 f5 be 5b 53 c1 3e
       -0.21883285 -0.31637424 -0.48036644 0.37758908
0001a0 a1 d0 02 be a0 6a b2 3b df 70 10 3f 87 f5 16 3e
       -0.12774898 0.0054448396 0.5642223 0.14742099
0001b0 02 5b fd 3e 88 5e de 3e 3a 23 ba bd 19 0c 91 bd
       0.49483496 0.43431497 -0.0908875 -0.070823856
0001c0 bb ea a4 be b6 d6 05 bf 28 48 8a be 7f e2 8e be
       -0.32210335 -0.5228075 -0.27008176 -0.27907178
0001d0 3c 87 27 be be 59 0d be 52 6c 67 be 08 75 13 3d
       -0.16360182 -0.13803765 -0.22599915 0.03600028
0001e0 c7 61 1a be 12 c6 d1 be f5 77 8d be 31 0f 8c be
       -0.15076362 -0.40971428 -0.27630582 -0.2735534
0001f0 e7 33 62 3e 3d 5b 46 be b5 fa bb 3e 33 65 09 3f
       0.22090112 -0.19370742 0.36714712 0.5367004
000200 a8 fb 9f 3e da 74 19 bd 5e e1 35 3e 11 03 85 3e
       0.31246686 -0.037464954 0.17761752 0.25978902
000210 34 0b 10 bf a9 cd 10 3f 2e 2e ae be 35 1c f9 be
       -0.56267095 0.5656381 -0.34019607 -0.48654333
000220 86 d1 12 bf 57 a9 ab be cd b5 5d 3e 3f 2e 20 3e
       -0.5735096 -0.33527634 0.21651383 0.15642641
000230 37 a5 9f 3e eb 54 62 bc 57 4b 3f 3e 15 ea 41 3b
       0.31180736 -0.013814191 0.18681084 0.0029588987
000240 73 de 8b be 0c 77 18 3e e1 0a 05 bf 07 24 7c 3e
       -0.27318153 0.14889163 -0.51969725 0.24623118
000250 38 ee d2 bd e3 6a 56 be 4b 30 d8 3e cd c7 f7 3e
       -0.10299343 -0.20939212 0.42224345 0.48394623
000260 bf 16 d2 3e 87 13 f9 3e 52 ad a4 be 34 90 10 bf
       0.4103298 0.4864771 -0.32163483 -0.56470037
000270 e8 a9 aa be 94 3f 91 3e d6 5f dc 3e 5d 36 b4 3e
       -0.33332753 0.2836882 0.43041867 0.35197726
000280 f6 4b 0b bf bf 32 ae 3b d9 f3 cd 3e ad 0a 06 3f
       -0.5441278 0.005316108 0.40225103 0.5236004
000290 6c ef c3 be c5 fb 8b be 5a d7 f9 3d f3 c0 c5 be
       -0.38268602 -0.27340522 0.12199278 -0.3862377
0002a0 26 06 00 bf da f7 67 be 9f 31 90 be 37 2f fe 3e
       -0.5000938 -0.22653142 -0.28162858 0.49645397
0002b0 1e ad 14 3f 46 81 9b 3e f5 1c 0c bf b0 1e 74 3e
       0.58076656 0.30372065 -0.54731685 0.23839831
0002c0 c9 ca 59 be be 10 66 be 9e 14 5d be 11 f9 2e bd
       -0.21268763 -0.22467324 -0.21589896 -0.042717997
0002d0 3b 32 88 3e c4 c6 08 bf 2b 7d d0 3e 56 08 f1 be
       0.26600823 -0.5342829 0.40720496 -0.47076672
0002e0 5a 74 a7 3d a4 89 f9 be f8 38 12 3e 7a 26 25 be
       0.08176489 -0.48737824 0.14279544 -0.16127959
0002f0 b5 bd 08 3f 27 2b a4 3e 17 ab 8f 3e 6b c7 86 3e
       0.5341447 0.32064173 0.2806022 0.2632402
000300 fa 08 b3 3e 17 2a ad be 09 dc 15 3f 92 6d e3 be
       0.34967786 -0.33821175 0.5853887 -0.44419533
000310 a6 4e 83 bd b1 a1 03 3f bd 34 0d bf f7 a4 d9 bc
       -0.064114854 0.51418597 -0.551586 -0.02656792
000320 7d 3c cc 3e 1f 83 0d 3e c2 08 a1 3e 80 e0 e3 3c
       0.398899 0.1381955 0.31451994 0.02781701
000330 d1 40 b3 3e 56 54 10 bf 53 2f 51 3e cf 79 ca 3d
       0.35010388 -0.56378686 0.20428209 0.098865144
000340 6f 34 86 bb 80 d0 6d 3c 50 d0 52 bd a6 8d 9d 3e
       -0.004095606 0.014515042 -0.051468194 0.30772132
000350 4a 11 d9 3e f0 15 fc 3e f1 71 03 3f 17 ac 8c 3e
       0.42396003 0.49235487 0.51345736 0.27475044
000360 74 42 ad 3e f1 8c 24 3e a1 3a d7 3d f2 ef 7a 3e
       0.33839762 0.1606939 0.105092295 0.24505594
000370 90 4b e4 3e 28 a1 a9 3e 65 32 b1 bd af 13 eb 3e
       0.445889 0.33130765 -0.0865219 0.45913455
000380 24 0e 11 3e 97 2c 08 bf b6 c8 a4 be 12 d0 12 3f
       0.1416555 -0.5319304 -0.3218438 0.5734874
000390 4f 64 f3 be 9d 50 8b be 1a 85 4f 3e 37 c3 d3 3e
       -0.47537467 -0.2720994 0.20265618 0.41359875
0003a0 a8 27 97 3d 96 68 db be cb 3e f5 bc 9a cf e5 3c
       0.07380611 -0.4285323 -0.029937169 0.028053094
0003b0 66 4d c9 be 29 46 b5 be 7b a4 07 3d 4f a1 6e 3e
       -0.39316863 -0.3540509 0.033115845 0.23303722
0003c0 c2 68 81 3e 18 c9 ac be 92 6d 8b 3d e5 5d 0a bb
       0.25275236 -0.33747172 0.06808008 -0.0021113094
0003d0 25 c3 c3 3d 59 91 12 3f ee 68 11 3f d2 2c d1 3e
       0.09558705 0.5725303 0.56800735 0.40854508
0003e0 af d4 71 3c 29 76 7c 3d 59 15 03 3e 96 e0 b5 3e
       0.01476018 0.061636124 0.12801112 0.35522908
0003f0 0d 3c e6 3e fd c1 bc 3e 22 31 36 be ea 1f 7e be
       0.4496769 0.3686675 -0.1779218 -0.24816862

fc2.weight f4 [300, 400]
000000 bf ff bf 3c 09 f7 48 bd 3c cd 89 3c f6 7f 26 bc
       0.023437379 -0.049063716 0.016821496 -0.010162344
000010 2f 18 89 3d 72 da e1 bc 3d e9 01 bd 6e d2 15 bd
       0.06694066 -0.027569983 -0.031716574 -0.036577635
000020 70 64 88 3d a8 4d 3b 3d 2e c8 88 bc 12 90 e7 bc
       0.06659782 0.045728356 -0.016697016 -0.02826694
000030 57 fe aa 3c 99 87 92 3b 8a c0 8d 3d 9e 97 0c bd
       0.020873232 0.004471731 0.069214895 -0.03432428
000040 e0 da 1f bc e6 c7 37 3d d2 32 12 bd 8e a9 68 3d
       -0.009756774 0.044868372 -0.035692997 0.056802325
000050 07 38 ac 3b 0b 6c 52 3d 70 d8 42 bd 3e 69 00 3c
       0.0052557024 0.05137257 -0.047569692 0.007837592
000060 3b e4 18 3d 96 b6 e8 bc 0e 0e a5 bc 3d 4e 3f 3d
       0.037327033 -0.028407376 -0.020148303 0.046705473
000070 68 3d fd bc f0 82 fa 3c ac 2c 2f bc b8 fb 98 3b
       -0.03091307 0.030580014 -0.010691803 0.004668679
000080 b0 34 21 3c 01 c7 e9 bc 0f e5 22 bd 16 3c 28 3d
       0.009839222 -0.028537275 -0.03976923 0.041072927
000090 40 d5 72 3b b4 a6 8a 3c ba b7 9e 3c 74 f4 70 bc
       0.0037053376 0.016925193 0.019374717 -0.01470672
0000a0 11 c0 97 bc 0f 0c 02 3b bc 0d 81 3b 09 c7 cf bb
       -0.018524202 0.0019843613 0.003938405 -0.0063408655
0000b0 37 36 af 3c b8 df 18 3b f2 45 ad 3c 3c d0 03 3d
       0.021388156 0.0023326706 0.021151517 0.03218101
0000c0 8d b9 e0 bc 0f 5f 0b 3d 56 f0 23 bd 3b 30 3c 3d
       -0.027432228 0.0340262 -0.040024124 0.045944434
0000d0 1a 96 d5 bc dd e6 49 3d d6 07 d2 bb db 2b be bc
       -0.02607255 0.049292434 -0.0064096255 -0.023214271
0000e0 a8 82 89 ba 65 74 1e bd 89 f3 fb bb 56 ad 25 3d
       -0.0010491209 -0.03868522 -0.0076889438 0.04044851
0000f0 ae 4a 0f bd 92 1e 50 3d 6e 0a 04 bd 7d 8e 8b 3d
       -0.03498333 0.050810404 -0.03223651 0.06814287
000100 d4 be 29 3c 4d 01 90 bc c5 c8 c4 3c df 18 79 3c
       0.010360438 -0.017578745 0.024021516 0.015203684
000110 80 d0 72 bb 58 50 47 3d 99 7a 4f bd b2 83 57 3d
       -0.0037050545 0.048660606 -0.050654028 0.05261583
000120 74 de af 3c fb aa 22 3d 8a f1 17 3a f1 c5 81 3d
       0.021468379 0.03971384 0.0005796185 0.063365825
000130 7a 37 2b 3d 48 8f 73 3c d3 79 ba ba 5f eb 68 bd
       0.041800953 0.014865704 -0.001422698 -0.056865092
000140 78 ea dc bb 65 f9 af bc bc dd b3 3c 4b 41 06 3d
       -0.006741818 -0.021481225 0.021956317 0.032777112
000150 64 e2 2a 3d 18 e4 0e bd ce cb 92 3c 54 9e 36 bc
       0.04171981 -0.034885496 0.017919447 -0.011146147
000160 1e 3f c4 3c 00 bc 57 39 6f 37 8e bc bd 46 50 3c
       0.023955878 0.00020574033 -0.017360417 0.012712178
000170 40 bd 0b bd 2e 91 83 3d 14 3f 35 bc 3b ff 0e 3d
       -0.03411603 0.06424175 -0.011062402 0.034911375
000180 56 fc c5 bc ea e2 9b 3c d3 27 03 bd 40 b0 8c ba
       -0.024168175 0.0190291 -0.0320204 -0.0010733679
000190 c0 c3 ee 3c 40 ae 8d 3c 2c 46 be 3c 58 ed d3 bc
       0.029146075 0.017295003 0.02322682 -0.02587001
0001a0 ca 63 58 3c 90 34 11 3d a5 77 d8 bc df 5e 35 bc
       0.013207385 0.035450518 -0.026424238 -0.011069982
0001b0 80 8b 82 3d 5b be 3b 3d db b8 02 ba 24 e6 1c 3d
       0.06374264 0.045835834 -0.0004986652 0.038305417
0001c0 4a ee 14 3d e2 68 d5 bc 23 54 21 3c 64 1a c3 3c
       0.036360063 -0.026050989 0.00984672 0.023816295
0001d0 02 c2 6a 3d 40 8c 04 3d 4d 3e 98 bc 20 4f 3f 3d
       0.057313927 0.032360315 -0.018584395 0.04670632
0001e0 c3 bd ce bc 88 a1 67 3d b4 69 81 3d be 1b 14 3d
       -0.02523697 0.056550533 0.063189894 0.03615927
0001f0 ab e4 02 bd dc 87 68 bd 61 ba 12 3d 8f 2e c2 3c
       -0.031956356 -0.05677019 0.035822276 0.023703841
000200 88 97 b0 bc 2c a7 1d bd e6 2a 4e 3d 0f 25 2d 3c
       -0.02155663 -0.038489506 0.05033388 0.0105679175
000210 c0 d3 03 3d 77 d3 33 bd 86 83 0a bd d8 69 ef bc
       0.032184362 -0.04390284 -0.033816837 -0.029225275
000220 02 79 1a 3d 20 df 4f 3c 9e 6e 8b 3d d4 7c 0c bd
       0.03771306 0.0126874745 0.06808208 -0.034298733
000230 99 78 30 bd 86 78 7b 3d 33 ec 38 bd cf 65 09 bd
       -0.04308376 0.061394237 -0.045147132 -0.033544358
000240 62 b1 51 bd 51 51 3b 3b 2f 08 52 bd 9f 38 4e 3c
       -0.051194556 0.0028582404 -0.051277336 0.012586742
000250 39 d7 48 3d 67 f8 f6 bc d7 a4 6f 3d 3a 47 86 3d
       0.049033377 -0.030147744 0.058506813 0.06556554
000260 52 90 73 3d fc c9 0f 3d ba d4 21 3d 98 6a e7 3c
       0.059463806 0.035104737 0.039509512 0.02824907
000270 0c 49 51 3d 3f d0 33 3d 7e 6e 07 3d b4 c8 15 3c
       0.051095054 0.04389977 0.033064358 0.00914209
000280 9a 2b 65 3d ac cf 48 bd 1c 9d d3 ba 67 23 4d 3d
       0.055949785 -0.049026176 -0.0016144845 0.05008259
000290 a0 83 e4 bb 12 57 56 bc 09 db 99 3d 10 d0 1b 3b
       -0.0069736987 -0.013082283 0.07512481 0.0023775138
0002a0 4e 24 1c bd fc 11 27 3d 90 03 b1 3c e0 4f 8a bb
       -0.03812056 0.040788636 0.021608144 -0.0042209476
0002b0 96 da 14 bd 92 f3 76 3d 90 27 74 bc e7 71 80 3d
       -0.036341272 0.06029088 -0.014902011 0.06271725
0002c0 85 19 05 bd 90 ef ff 3b df 26 42 bd 56 87 20 3d
       -0.03249504 0.0078105405 -0.04740035 0.039191566
0002d0 72 71 0c 3d 1c 5e f8 3c 33 0e 37 3c 52 00 c7 bc
       0.034287877 0.030318312 0.011172819 -0.024292145
0002e0 39 8c 0b 3d 9d 22 38 bd 96 99 24 3c f8 cd 05 3c
       0.034069274 -0.044954885 0.010046383 0.008166783
0002f0 57 2c a1 bb 03 e8 16 bd 0d 81 13 bd da d3 82 bc
       -0.004918616 -0.036842357 -0.036011744 -0.01597016
000300 dd ec 96 bc fa 7f 11 3d 33 89 28 3d 90 b2 07 3c
       -0.018423492 0.03552244 0.04114647 0.008282319
000310 a9 0f 14 bc 8d 5e 77 3b 96 80 38 3d bc 9e 9b bc
       -0.009036937 0.0037745566 0.045044504 -0.018996589
000320 2f ca 1e 3d 13 23 3a 38 da 1a b6 3c b3 28 0d 3d
       0.038767036 4.437852e-05 0.0222296 0.034462642
000330 b1 c4 5a 3d 40 0e 31 ba ff fa ff 3b 36 3d cd bc
       0.053410236 -0.00067541376 0.0078119035 -0.025053602
000340 b1 01 e7 3b d1 2b 99 3b 58 10 57 3d 3a bb ec 3b
       0.007049762 0.004674413 0.05250582 0.0072244676
000350 b4 95 32 3c e0 3a 5c 39 84 cf b4 3c 79 c2 f7 bb
       0.01089995 0.00021002768 0.022071607 -0.0075610247
000360 f1 19 5c 3d 90 91 ed 3c 98 59 4d 3d 18 d2 22 bd
       0.053735677 0.029000074 0.05013427 -0.039751142
000370 05 02 e5 bc 2a c1 19 bd 14 66 ae 3a 71 33 8b bc
       -0.027955065 -0.03753773 0.0013305568 -0.016992303
000380 68 96 d8 bc 14 60 79 bc 24 9d d5 3c f4 c1 2e 3d
       -0.026438907 -0.015220661 0.026075907 0.042665437
000390 9e 80 a5 bc 69 48 12 bd f3 b3 36 3d 41 38 29 3d
       -0.020202931 -0.035713587 0.044605207 0.041313414
0003a0 1d 82 06 bd 24 37 40 3d c8 d7 17 bd 6a 32 53 3d
       -0.03283893 0.046927586 -0.03707102 0.05156175
0003b0 fa b5 b5 bc 08 ac c0 bc ce 32 3d b7 aa 38 4a 3c
       -0.0221815 -0.02351953 -1.1277107e-05 0.012342611
0003c0 c3 36 2e bd 52 af 3b 3d 5e 7b 92 3c db 6c b2 3c
       -0.042532694 0.045821495 0.017881092 0.021780422
0003d0 c1 6d 9d 3d 21 e9 01 3d 75 42 d8 bc 2f 2e 52 3c
       0.076869495 0.03171647 -0.026398877 0.012828394
0003e0 a9 4e c4 3b 9c 11 13 bd 0d 13 1a bc 62 bf 73 3d
       0.0059908223 -0.035905465 -0.009403956 0.05950869
0003f0 b2 dd 36 3d 4f 66 ad 3c a8 04 0d 3c b2 78 1d 3d
       0.04464502 0.021166949 0.008607067 0.038445182

fc2.bias f4 [300]
000000 9b e4 0b 3d db 9f 9e 3c 86 f3 13 bd 00 40 5b bc
       0.034153562 0.019363334 -0.036120914 -0.013381958
000010 07 6a 3c bd e3 f0 32 bd 5f c3 4b 3d 8d 64 38 bc
       -0.045999553 -0.04368676 0.049746867 -0.011254442
000020 6c 91 05 bd 94 ee 0c bb 9c bf be 3d b5 77 70 3d
       -0.03260939 -0.0021504508 0.0931389 0.05870791
000030 c5 60 17 bd 65 a1 03 bd 05 38 28 3d f0 fd af bc
       -0.03695752 -0.03213634 0.04106905 -0.021483392
000040 38 26 45 3c 37 2b 42 3d b5 ab 15 bd d0 7f 1c 3d
       0.012033038 0.047404494 -0.036540706 0.03820783
000050 d9 8c 3e bd bc a5 f9 3c c8 1f 0b 3d b0 2e 14 bc
       -0.04652104 0.030474536 0.033965856 -0.009044334
000060 9a 42 26 bd bd 0a 94 3d 1a fd 82 3c 80 9a ce b9
       -0.04059086 0.07228611 0.015989829 -0.00039406493
000070 49 33 c7 3c 7f ab f3 ba d5 50 f5 bb e4 ea 88 bc
       0.024316447 -0.0018590539 -0.0074864426 -0.016713567
000080 10 19 01 3d 70 28 2b bd 06 a2 1b bb 30 ea c8 bc
       0.031518042 -0.04178661 -0.0023747697 -0.024525732
000090 8d de 94 3c d0 34 34 bd 40 db 4c 36 2e 5e be 3c
       0.018172527 -0.04399568 3.052599e-06 0.023238268
0000a0 8c f2 61 3c 3f f8 52 bc 18 b4 10 bd 35 37 f9 bb
       0.013790738 -0.012876569 -0.035328 -0.007605458
0000b0 ed 99 a0 ba bb 7a 10 3d 4d cd 20 bd 7d fb 49 3d
       -0.0012252905 0.035273295 -0.03925829 0.049312104
0000c0 a8 bf 95 3c da b3 04 bd e6 7c 12 3d 34 e4 8f bb
       0.018279865 -0.032398082 0.035763644 -0.0043912176
0000d0 bc da f9 bc 23 05 e8 bc 2b 80 f0 3c 3b 60 9e bc
       -0.030499808 -0.028322762 0.02935799 -0.019332996
0000e0 da db ef bc ba a3 3f bd ed 52 42 bd c5 df 07 bd
       -0.029279638 -0.046787 -0.047442365 -0.033172388
0000f0 41 57 21 3d a3 cc 09 3d 92 aa f6 3c 9a d2 7f bc
       0.039389852 0.033642422 0.030110631 -0.015614176
000100 48 b7 0e bd 99 e2 10 bc 55 25 36 bd aa ea 1f 3d
       -0.03484276 -0.008843088 -0.044469196 0.039042152
000110 90 73 d3 bc f4 d5 10 bc 01 05 4b 3d 99 a7 9b 3d
       -0.02581194 -0.008840073 0.04956532 0.07600326
000120 ed d9 a0 bc 05 16 08 3d 42 6d eb 3b e5 53 ca bc
       -0.019635165 0.033224124 0.0071846554 -0.024698207
000130 f9 bd fa 3c 76 9b 9d 3c 16 b6 8e bc 9b 00 36 3d
       0.030608164 0.019239169 -0.01742081 0.04443417
000140 0a eb 3f 3d c5 4f 96 3c 7d 8b 18 bd 40 38 da bc
       0.04685501 0.018348584 -0.0372424 -0.02663815
000150 b8 29 4a 3c 60 be f4 bc c6 b1 55 3c bd 3d f6 bc
       0.012339048 -0.029875934 0.013042873 -0.030058736
000160 49 b1 31 bd eb 33 59 3d d2 86 eb 3c 75 37 23 3d
       -0.043381963 0.05302803 0.02875081 0.03984781
000170 35 cf f7 3c a5 41 27 3d 18 55 21 bc 35 40 06 bd
       0.030250171 0.040834088 -0.009846948 -0.032776076
000180 29 35 27 3d ed 1b 1f bd 78 b0 a7 bc bb a0 34 bc
       0.04082218 -0.03884499 -0.020469889 -0.011024649
000190 81 58 6d 3d 08 39 d7 bc 8b f7 11 3d 83 27 d6 ba
       0.057945732 -0.026272312 0.035636466 -0.001633868
0001a0 e5 c4 54 bd 92 b9 c5 3b 58 58 15 3d 43 53 06 bd
       -0.051945586 0.0060340846 0.036461204 -0.03279425
0001b0 34 12 2c bc 7d 69 0b 3d 05 f6 09 3d 69 94 45 3d
       -0.010502387 0.03403615 0.033681888 0.048237238
0001c0 7f 80 ae bc 77 d1 22 3d 7b 84 b1 3c 68 ec b3 3b
       -0.021301506 0.039750542 0.021669617 0.0054908283
0001d0 c0 b8 39 bd dd 08 3c bd 6d d9 9b bc ff 42 2b bd
       -0.045342207 -0.04590689 -0.019024575 -0.04181194
0001e0 93 fa 0b bd 14 c2 75 bc 60 97 c6 3a 32 90 07 bd
       -0.034174513 -0.014999885 0.0015151314 -0.0330965
0001f0 a6 ad 3d 3d 54 9d 0a 3c d5 64 92 3c ac 78 2d 3d
       0.046308182 0.0084603615 0.017870346 0.04235141
000200 d9 d6 e2 bc dd 44 ba 3c 8e 94 1c bd 62 af fb 3c
       -0.027690338 0.022737915 -0.03822761 0.030723277
000210 ea 6a 15 bd 98 57 08 3c 46 8e 14 bd 6d 43 fb bc
       -0.036478914 0.008321665 -0.036268495 -0.0306718
000220 a0 c8 ac bc ef 77 bf bb 7e 83 99 bb f7 7b 17 bd
       -0.02109176 -0.0058431546 -0.0046848645 -0.036983456
000230 e7 b2 a5 3b 73 83 39 3d ef 49 e4 ba e0 ca 94 3c
       0.005056727 0.045291375 -0.0017417053 0.018163145
000240 66 f6 fe bc dc ef 2c 3d a7 bd 8c 3c 52 79 d9 b9
       -0.031123351 0.042220935 0.017180277 -0.00041479856
000250 3b 17 17 3c 13 20 26 bd a2 ba 65 bc e0 50 a8 3c
       0.009221847 -0.040557932 -0.0140215475 0.020546377
000260 ad bf 11 bd e6 42 81 3c 11 a9 9b bc a1 e5 31 bd
       -0.035583187 0.01577897 -0.019001516 -0.04343188
000270 bd a7 d0 bc db 60 29 3d 04 b3 af 3c de 58 42 3d
       -0.025470609 0.041352134 0.021447666 0.04744803
000280 dd 7b 10 3d 0e 69 8a 3c 14 03 dc bc 9a 7c 40 3d
       0.035274375 0.016895797 -0.026856937 0.04699383
000290 d1 8c 84 bc 47 6f b5 bc c0 7b 6b bc 06 41 09 3d
       -0.016180428 -0.022147788 -0.014372766 0.033509277
0002a0 b9 5f f4 3c b6 36 25 bd bd 11 42 bd 80 ea 9e bb
       0.0298308 -0.04033538 -0.047380198 -0.004849732
0002b0 39 ba 9a 3b 4b 14 20 bd c1 27 56 bc 76 9c 2c 3c
       0.0047219065 -0.039081853 -0.0130710015 0.01053535
0002c0 e9 db e7 3c ae 60 66 3c b5 58 18 3d a0 6f 81 3a
       0.028303104 0.014061136 0.037193973 0.0009875186
0002d0 c7 91 42 3d 46 73 b8 3c 80 ca 21 3c 31 49 d9 3d
       0.047502305 0.022515904 0.00987494 0.10609663
0002e0 b4 00 38 bd 0f 4c 12 3d 08 bd 24 bd c2 85 15 bc
       -0.044922546 0.035717066 -0.040219337 -0.009126129
0002f0 e7 77 a9 bc 7c 1c c7 3c 00 28 00 3d dc ec 48 bd
       -0.020687057 0.024305575 0.031288147 -0.04905401
000300 2c 43 2b 3d 22 8e f2 3c 55 35 05 bb 95 81 86 39
       0.041812107 0.02960879 -0.0020325978 0.00025655018
000310 29 f5 81 3d 22 65 35 bd 83 be 23 3c a8 83 ab bc
       0.06345589 -0.0442859 0.009994152 -0.020936802
000320 57 49 44 3d d5 1e cc bc 80 e7 44 3d b0 e7 3c bd
       0.047921505 -0.024917046 0.048072338 -0.046119392
000330 ce 28 c8 bc 21 f7 40 3d bb be 07 bd fa 03 40 bd
       -0.02443352 0.04711068 -0.03314088 -0.046878792
000340 95 fa 04 3d 53 bd 88 bb 2b ab 45 3d 94 c0 5d bc
       0.032465536 -0.00417296 0.04825894 -0.013534684
000350 5d 76 ea 3c 5a 1d 03 3d 81 a1 b1 3c 11 ea 0a 3d
       0.028620893 0.032010414 0.021683456 0.03391463
000360 7a 5e 27 3d 7b ee 78 bb ff e4 1b 3d 2d c8 6d 3c
       0.040861584 -0.0037983942 0.038060185 0.014513058
000370 e7 96 2c bd 98 da 78 bc a5 99 47 3c fd a8 53 3c
       -0.0421361 -0.015188836 0.012182628 0.012918708
000380 50 ab 7e bb 2a 3a f4 bc 67 e9 e2 bb 72 a6 89 3c
       -0.0038859434 -0.029812891 -0.0069247964 0.016803
000390 42 95 90 3c c7 1d 10 bd 3a 8f 88 39 0d f3 f8 bc
       0.017649297 -0.035184648 0.00026046654 -0.030389333
0003a0 4c 9a 18 3d 62 c7 0f bd 5a ab 51 3b 72 3a da 3d
       0.037256524 -0.035102256 0.0031993003 0.10655679
0003b0 7d 17 75 bc 3a b3 c9 3c 58 a5 eb bb 8a 5d 35 ba
       -0.014959213 0.024621595 -0.0071913414 -0.00069185405
0003c0 f5 e3 43 bd 2b f0 f2 39 10 41 a3 bc 5d f8 55 bc
       -0.04782482 0.00046336776 -0.019928485 -0.013059703
0003d0 d0 a9 ec 3b 1c 34 82 3d 5e b6 f7 3c ce 71 d0 3c
       0.0072223917 0.06357595 0.030238327 0.025444891
0003e0 0a 28 80 3c c0 4f 2b 3d c5 7b 0b 3d 4f 00 69 bc
       0.015644092 0.041824102 0.034053583 -0.014221265
0003f0 91 b7 2a 3b 73 b5 3e 3c 10 86 b4 3c d1 ce b8 3c
       0.0026049356 0.011639941 0.022036582 0.022559555

fc3.weight f4 [1, 300]
000000 ef 35 90 bc 4e 2e 16 bc d1 06 d0 bb 90 bf 11 39
       -0.017603843 -0.009166313 -0.006348469 0.0001389964
000010 7e b3 02 bb 0f 13 f0 3b 01 ad 8e bd b6 21 8d bb
       -0.0019943411 0.0073264907 -0.069665916 -0.004306997
000020 80 d5 97 3a 09 4b c7 3a 11 18 87 bd 7c c6 8b bd
       0.0011584014 0.0015204857 -0.06596387 -0.06824967
000030 7b 5a 30 bb 1a b1 42 bb 5b 67 8a ba 30 5e 14 39
       -0.00269094 -0.0029707612 -0.0010559367 0.00014149467
000040 00 fe 19 bb cc f1 81 bd 3c 00 55 3a a4 8b 25 bb
       -0.0023497343 -0.06344947 0.000812534 -0.0025260234
000050 a6 4d 1b 39 ec 87 b0 3b 27 55 a3 39 d4 ec a3 39
       0.00014810878 0.005387297 0.00031153226 0.00031266233
000060 a8 2d 3d bb 38 ac 92 bd 78 75 a8 ba 7c 96 88 3a
       -0.0028866325 -0.07161754 -0.0012852391 0.0010420824
000070 3c 9a 1c b9 a8 b4 f2 39 0a 22 58 bb ac 38 41 bb
       -0.00014934776 0.00046292436 -0.0032979273 -0.0029483242
000080 1d 3b f1 b8 0a 94 41 bb 42 6d 10 bb 59 9a 8f 3a
       -0.00011502786 -0.00295377 -0.002203778 0.0010956033
000090 ba 4d bf ba 59 b9 3e ba 07 ea 3c ba 48 75 79 3b
       -0.0014595308 -0.0007275544 -0.00072065037 0.003806429
0000a0 49 c1 d2 39 12 64 1c 39 88 de 86 39 c2 3d d7 bb
       0.0004019833 0.00014914598 0.0002572427 -0.0065686414
0000b0 a8 8d 22 bb 66 85 16 3b cd f9 b8 ba 81 cd e9 ba
       -0.0024803672 0.0022967695 -0.0014112532 -0.0017837734
0000c0 e1 25 2f 3b d4 b9 0e bb 2a fe 20 3b b7 75 30 3c
       0.0026725458 -0.0021778243 0.0024565556 0.010770253
0000d0 2d 16 71 3a 98 3b 4c ba 15 a6 67 b9 e3 c2 93 3c
       0.0009196725 -0.00077908626 -0.00022091747 0.018037265
0000e0 ee 96 86 bb b4 e2 06 3b f8 24 7a ba 51 12 a5 39
       -0.0041073477 0.0020581903 -0.0009542252 0.000314849
0000f0 98 75 9c b9 03 99 cd b9 dc f4 b7 3a 25 5b bc ba
       -0.00029842253 -0.0003921465 0.0014034766 -0.0014370425
000100 b8 09 07 3b 66 a4 ec b9 00 c9 cf 38 0a 43 61 ba
       0.0020605158 -0.00045135914 9.907968e-05 -0.00085930584
000110 90 39 b5 3a 40 be 46 3a 93 a1 3a bb 4d 71 91 bd
       0.0013826359 0.000758145 -0.0028477653 -0.071016885
000120 0f 33 75 ba 81 76 1f bb 13 19 63 39 c5 e6 59 bb
       -0.00093536166 -0.0024332108 0.00021657748 -0.0033249122
000130 98 be e9 bb 00 7c 1b b7 f6 79 6c ba 8b 25 c9 3b
       -0.0071333162 -9.267591e-06 -0.0009020859 0.0061385087
000140 20 01 73 bb ea 3b 66 ba cc de cb 3a 18 17 35 3a
       -0.0037079528 -0.00087827316 0.001555407 0.0006908043
000150 96 db 8d 3a 48 68 d3 39 f5 e3 03 bc d2 e8 e6 ba
       0.0010822888 0.00040322752 -0.008049955 -0.0017616993
000160 70 6a 6e 3c f2 d6 15 bc a8 a7 2a bb 98 a3 5c ba
       0.014551744 -0.009145485 -0.0026039872 -0.00084167114
000170 24 de f3 ba 34 5b b9 ba f0 cc cb b9 80 3e 8a bb
       -0.0018605632 -0.001414156 -0.00038871868 -0.0042188764
000180 f8 ed 86 bd a8 46 5b 3a 51 55 c8 ba 7f 53 8e 3a
       -0.06588358 0.00083647156 -0.0015284215 0.0010858624
000190 5a 2d a5 bc bc 2e 13 bb 9f 98 86 b9 dc 58 d4 b9
       -0.020163227 -0.0022458276 -0.00025672183 -0.00040501996
0001a0 10 91 8e 3a a5 22 35 bb eb 8e 80 bc e0 cd 0f ba
       0.0010876972 -0.0027639058 -0.015693149 -0.0005485695
0001b0 0a b1 d4 ba e7 6b ab 3a 9a b2 76 bb ec 77 69 ba
       -0.0016227078 0.0013078422 -0.0037643076 -0.00089061144
0001c0 63 59 4f bb f7 8f c2 39 39 09 3c 3a 64 e6 03 3a
       -0.0031638972 0.00037109826 0.0007173005 0.00050315843
0001d0 4c cf aa 39 36 42 78 b9 bc 79 91 ba c8 da 86 bb
       0.00032579375 -0.00023675789 -0.0011098902 -0.004115436
0001e0 a5 1b ce ba fb b1 1d bb cd 9f 2a bb 2c 79 1d 3b
       -0.0015724791 -0.0024062383 -0.002603519 0.0024028523
0001f0 7f 98 67 3a 30 dc 71 ba 1a b9 dd 39 2f 15 5d 37
       0.00088346744 -0.0009226231 0.00042290316 1.3177559e-05
000200 d2 25 f4 b9 5c f7 9c b9 56 e8 8b ba b8 93 cb b9
       -0.00046567485 -0.00029938936 -0.00106741 -0.00038829236
000210 8b a2 3f bb b2 33 34 bb 5d dc 51 3d d8 01 fe 39
       -0.002924117 -0.0027496633 0.051235545 0.0004844803
000220 92 d8 36 bb 4f 4e 59 bc 54 2c 75 3c 90 a3 96 3b
       -0.0027900082 -0.013263299 0.014964182 0.004597135
000230 8a 69 25 bb b9 5d 6f b8 37 48 2c bb 5b e5 88 ba
       -0.0025239908 -5.7069326e-05 -0.002628816 -0.001044433
000240 e9 a2 94 bb 31 e5 e7 ba 0c ac ae 3a b2 87 f4 3a
       -0.004536022 -0.0017692206 0.001332642 0.0018656163
000250 71 43 68 bb a8 63 6b ba ec 8d 49 ba 34 87 16 ba
       -0.0035440589 -0.00089793885 -0.00076886895 -0.0005742193
000260 ac d7 3d 3b d0 1e 91 b9 7c 96 b9 3b 2f ca c3 b9
       0.0028967662 -0.00027679512 0.005663691 -0.00037343937
000270 54 cf fc 3a cb 00 e6 b9 fd e4 58 bb 62 36 bf 3b
       0.0019287863 -0.0004386961 -0.0033095472 0.0058353404
000280 70 63 8b 3c f4 2c 13 3b ff 07 96 39 a4 fd a9 bc
       0.017015189 0.0022457214 0.00028616187 -0.020750828
000290 c1 22 bb b9 15 79 05 3b be 37 1c bb 49 d2 04 bb
       -0.00035693313 0.002036636 -0.0023836936 -0.0020266941
0002a0 8f da c3 3a 81 1e ad ba 00 85 e9 b7 90 7d 80 3a
       0.0014942455 -0.0013207943 -2.7837697e-05 0.0009803046
0002b0 e5 3d ce ba 3a a7 2e 3b fd 14 07 3a d9 a0 45 bb
       -0.0015734999 0.0026649968 0.0005152969 -0.0030155687
0002c0 8d 4a 36 3b 57 4a d2 ba f5 1d b5 ba 7c bf 2f 3b
       0.0027815432 -0.0016043884 -0.0013818132 0.0026817014
0002d0 74 2c ec 39 34 d3 a1 3a bf 70 2d bb 5b ba 8c bd
       0.00045046548 0.0012346269 -0.0026464907 -0.06871482
0002e0 fc fe c2 39 4c 6a 05 bd 34 60 de ba 63 69 91 38
       0.00037192542 -0.032572076 -0.0016965927 6.9337686e-05
0002f0 95 42 08 bd 4a 10 a2 b9 6d 70 dd b8 8c d8 4c ba
       -0.033266623 -0.00030911184 -0.00010559042 -0.00078142504
000300 6e 69 2f bc d9 bd 10 3b b4 83 29 bc 83 9f f9 3a
       -0.010706289 0.0022085814 -0.010346342 0.001904473
000310 b6 b9 b3 bd 77 b0 e1 3b cb ba e8 ba e0 53 71 bc
       -0.08775656 0.0068874913 -0.0017755864 -0.01472947
000320 37 91 d8 3d 10 c5 dd bb 3f 66 4d bb 30 f6 3a 3a
       0.105745725 -0.0067678764 -0.003134146 0.0007132022
000330 57 b8 c0 b9 f2 ba 1e bb 3c 60 13 bb 0a 1d 12 bb
       -0.00036758438 -0.0024220315 -0.002248778 -0.002229514
000340 3b f7 a0 ba cf 33 0c ba 68 5b 1a 3a 92 73 39 3b
       -0.0012280712 -0.0005348296 0.00058882544 0.0028297645
000350 33 42 ee 3a e0 f7 1c 3a af aa 8e b9 e4 38 a5 3a
       0.0018177688 0.0005987864 -0.0002721152 0.0012605456
000360 6b ce 93 ba 4a fe 68 bb 6d 2b 4d 39 8c 15 60 3b
       -0.0011276727 -0.0035551959 0.00019566501 0.003419253
000370 e7 44 1a bb 7b 75 52 bb 52 3b db bb 16 0d 3e 39
       -0.0023539604 -0.003211348 -0.006690421 0.00018124687
000380 98 ec 78 3a 1c 3d 8e 3a 52 d8 bc 3c 90 b6 a6 b9
       0.00094957044 0.0010851952 0.023052368 -0.00031798007
000390 11 da 91 ba e5 95 a9 b9 df c5 2b bb 77 06 3e bb
       -0.0011127611 -0.00032345872 -0.002621047 -0.0028995553
0003a0 d4 37 1f ba a2 c6 34 3b a1 8c 9a bb 00 cd 84 bd
       -0.00060736877 0.0027584215 -0.0047164713 -0.06484413
0003b0 77 82 c3 bc 07 83 1e bb 90 4f 53 ba b7 c9 aa 39
       -0.023865921 -0.0024186985 -0.0008060867 0.00032575216
0003c0 b7 93 22 bb fe a8 07 3b f2 b3 0f bb 21 93 81 3a
       -0.0024807283 0.0020700092 -0.0021927324 0.0009885767
0003d0 00 39 07 b7 5d 5f aa bd 8f 3b 66 b7 c3 6b b4 b7
       -8.059898e-06 -0.0831897 -1.3722935e-05 -2.1507853e-05
0003e0 6c 27 4d ba c8 5c ce 3a e4 5a 44 ba c5 fd 95 ba
       -0.0007826004 0.0015744204 -0.00074903504 -0.0011443427
0003f0 2d 8d 13 ba e4 f6 ac bb 2e 1f 21 3b 65 a5 c5 b8
       -0.0005628642 -0.005278455 0.0024585235 -9.424499e-05
