DDPG/checkpoint_critic.pth (torch_old, 491016 bytes, 5 tensors)

fcs1.weight f4 [400, 3]
00000000: 6840 4c3c 7b68 2c3d 92f4 863c 7200 89be
00000010: 3f7c 863e afdc 803d 7844 00bd 20b5 93bd
00000020: 6102 913b 3337 1b3d 008f e6bc db5f 643c
00000030: 2eeb 1ebe 4902 2a3e 6c4c a33d 4953 4ebe
00000040: 3325 c83e abf6 8f3d 495a 54be a7e8 453e
00000050: ec6b a53d accc 82bc 00da f63a d1a6 1a3d
00000060: 23ce 0e3d b87d d1b9 31e9 3d3c e23c d1bd
00000070: 73d9 f53c cf13 b33c f3b1 6c39 c28f 9bbc
00000080: e3d2 503c dd7d 4abe 38f5 41bd e9e0 afbd
00000090: 804d 61be ac01 72be 1b18 26bd cf99 7ebd
000000a0: 5f6c e23b 1545 23bd cc52 83be ce8e 0fbb
000000b0: b5bb 7bbd 7ef8 e53c 63cf 9bbc e015 3a3b
000000c0: 5b9e 3abd 1afb 593d 2360 cf3c 99e7 a8be
000000d0: e9a3 debd 74a0 a6bc c220 5abe 96cb babd
000000e0: 97f8 83bd 1a6d eabd fca2 a03d dfaf 3ebb
000000f0: 31a9 dbbd f2c8 6c3d 1a7d 6cbc d226 8dbe
00000100: 6241 cd3d b69f a53c 23b5 b4bc a628 0fbd
00000110: 0352 2f3d 19d2 73bc b4fc 77bd 5287 15bd
00000120: a352 823a 17ef 843d 3544 483d df3c 2b3e
00000130: 7c20 c5be 51cd c73d f876 1e3c f4ff 50bc
00000140: 1b17 2ebd 4b8d 9abe 2457 8f3e b22c 703d
00000150: b4a2 23bc c011 a4bc 00ce 043c 7a0c c6bc
00000160: 68b9 03bd 08ff 03bd 2f63 7bbc 86aa 1b3c
00000170: d7a5 8e3c 3de9 6b3d 465b 69bc b2e3 f13b
00000180: c8aa 56be e313 983e e7eb d23d a404 41bc
00000190: e46a 503d 5ecb 8eb8 de83 cf3c de29 95bd
000001a0: abb4 1d3c 50a7 153b 868c fc3c 6029 083b
000001b0: 801d 1dbb 5821 1dbc e0a6 073b 23aa 393d
000001c0: 50d7 d9bb 0a0d acbc 01d7 1abe 6e99 4c3d
000001d0: 9129 9c3b 6889 5cbe e2b8 4abe d823 e4bd
000001e0: adb2 b2be af9e 1abd 339b ddbc 1b35 4bba
000001f0: dba4 3f3c 9d85 de3c adb3 08be c0c4 793c
00000200: 7ad0 63bc ed23 fdbd 29b9 bf3c eee7 a8bc
00000210: 51c3 40bd 360c 4c3d fd09 ac3d 1e38 f3bd
00000220: c07b 32bd d36f 00bd 5d9a 53be 467e dcbd
00000230: 76d2 91bd 4a9f e5bc b0e5 00bb 958c 2cbd
00000240: 40cf 82bb ac0b da3c b9eb e5b9 7c39 5abe
00000250: 02dc d5bc cdd8 b5bd c2ee 9a3c 0090 c6b7
00000260: cb3a 28bd cc58 0abd 5cff a53d 5e8a 543d
00000270: 280d 9b3b 2668 28bd 4a30 dfbc 4b20 8dbd
00000280: b572 02bc 6906 d4bc fbd3 a6be 7a0d 21bd
00000290: 0047 2abd b705 9bbc 8374 213d b457 10bc
000002a0: 74be 203e b6c1 d1be 3009 a6bd a4ae 9abe
000002b0: 5f6c 7d3d 79a9 dc3c 37df 89be fe41 c4be
000002c0: a433 e239 ba89 83bc 189d 95bb 68fc 69bc
000002d0: 306e b4bd e5cb c3bc 73ba 86bb 913a adbd
000002e0: 11c5 943d 5492 583d 5ecb 0bbe fa6e b4bc
000002f0: e688 09be 95f5 c23d 728a f0bd d838 cfbc
00000300: 3688 403c 7397 613d de60 afbb 96a6 aabd
00000310: e9f8 493c 111a 3fbd 1f1f 09bc 6be6 64bc
00000320: dcd3 863c c171 6a3a 05c8 8cbd 280f 493e
00000330: 6bc3 a8be d146 1dbe 694e 63bd 1fba 3fbd
00000340: 6c82 4bbc 58a4 9fbb 1321 b7be 16b3 1cbd
00000350: d997 aabb 52ed 6fbc 39c3 a53c f138 173b
00000360: 706e 0dbe 0623 b83d d087 2f3d bba1 5d3d
00000370: 3495 a7bd 49a2 d5bb b61c 1abe 7050 44bc
00000380: a77c 0f3c ec78 60be 2d09 9dbc 02bf b5bd
00000390: 50a8 e6bb 8a12 b73c a91d 283d d31b aebc
000003a0: fe50 843c 5d7e 913c e64a 82be 1bdc c8be
000003b0: 3bf2 9c3b d02f 933b 6395 4abd 43e9 e4bc
000003c0: 14ec 593c 307b 4fbb 6001 d9bc 768e 24be
000003d0: a1a3 053c ab55 993c ea9a 163c 7877 f8bc
000003e0: 3946 b0bc bdb7 bc3d 4cd0 0bbe 5c48 63bc
000003f0: 8e63 72be d24f debe 05ec dfb9 a980 cebd
0.0124665275 0.042091828 0.016474042 -0.26758152 0.26266667 0.06292092 -0.031315297 -0.07212281
0.0044253324 0.03789444 -0.02814436 0.013938869 -0.15519401 0.16602434 0.07973561 -0.20148958
0.3909088 0.0702947 -0.20737566 0.19327031 0.08077225 -0.015966736 0.001883328 0.037756745
0.034864556 -0.00039957254 0.011591242 -0.102166906 0.030010914 0.021860031 0.00022573005 -0.018989448
0.012745592 -0.19774576 -0.047353 -0.0858782 -0.2200222 -0.2363345 -0.040550333 -0.062158402
0.0069098915 -0.039860804 -0.25649107 -0.0021905187 -0.06145831 0.028072592 -0.019019788 0.0028394386
-0.045561176 0.053217985 0.025314396 -0.32989195 -0.10871107 -0.020340182 -0.21301559 -0.09120862
-0.06443899 -0.11446591 0.07843587 -0.0029096527 -0.1072563 0.057808824 -0.014434123 -0.2756868
0.100222364 0.020217758 -0.022059029 -0.034950875 0.04280282 -0.014881634 -0.06054373 -0.036506005
0.000994284 0.06490915 0.048893172 0.16722439 -0.38501346 0.09755958 0.009671919 -0.0127563365
-0.042502504 -0.30185923 0.2799617 0.058636375 -0.009987522 -0.020027995 0.008105755 -0.024175871
-0.03215924 -0.03222564 -0.015343471 0.009501105 0.017413063 0.05759548 -0.014242953 0.0073818797
-0.20963585 0.29702672 0.10298901 -0.011780892 0.05088319 -6.808968e-05 0.025331434 -0.07283376
0.009625594 0.0022835322 0.030828726 0.0020776615 -0.0023973882 -0.009590469 0.002069883 0.04532827
-0.0066479817 -0.021002311 -0.1512108 0.04995101 0.0047656973 -0.21536791 -0.1979709 -0.11139649
-0.34901944 -0.03774899 -0.027051544 -0.0007751749 0.011697019 0.027163321 -0.13349791 0.015244663
-0.013904685 -0.12360368 0.02340372 -0.020618405 -0.04706127 0.049816333 0.084003426 -0.11875938
-0.04357505 -0.031356644 -0.20664354 -0.10766272 -0.0712022 -0.028030057 -0.0019668154 -0.042126257
-0.0039919913 0.026616894 -0.0004385391 -0.21310991 -0.026105884 -0.08879242 0.018912677 -2.3670495e-05
-0.041071694 -0.03377609 0.081053466 0.05188977 0.004731793 -0.04111495 -0.027244706 -0.06890925
-0.007961919 -0.025881963 -0.32583603 -0.039319493 -0.041571617 -0.018923623 0.039417755 -0.008809973
0.15697652 -0.40968102 -0.08107221 -0.30211365 0.06187093 0.02693628 -0.26928112 -0.38331598
0.00043144554 -0.016056884 -0.004565846 -0.01428137 -0.08810079 -0.023900935 -0.004111582 -0.08458436
0.0726415 0.052873924 -0.13651797 -0.022025574 -0.13431129 0.09519497 -0.11745156 -0.02529566
0.011751225 0.055076074 -0.0053521236 -0.08332555 0.012327411 -0.04665572 -0.008369236 -0.013970952
0.016458444 0.0008943342 -0.06874088 0.19634688 -0.32961592 -0.15359046 -0.0554947 -0.04680836
-0.012421232 -0.004871886 -0.3576742 -0.038256727 -0.00520609 -0.014643984 0.020234691 0.0023074711
-0.1381166 0.08991055 0.04285413 0.054109316 -0.08182755 -0.00651959 -0.15050015 -0.011982068
0.008757747 -0.21921128 -0.019169414 -0.088743225 -0.0070391074 0.022347707 0.04104391 -0.021253502
0.016151901 0.01776045 -0.25447768 -0.39230427 0.0047896183 0.0044917837 -0.049458873 -0.02794326
0.013300914 -0.0031659119 -0.026489913 -0.1606997 0.008156688 0.018717607 0.009192208 -0.030330405
-0.02151786 0.09214733 -0.13653678 -0.013872232 -0.2367079 -0.43420273 -0.00042709723 -0.10083134

fcs1.bias f4 [400]
00000000: ba9c 43be d239 d2bd e1d6 433e fd89 cc3e
00000010: 7e20 903e c9a8 4bbe 70ff 5e3e 1ae3 d1be
00000020: a244 c63e 5516 5c3e d82d c0be cede b13d
00000030: 803e 5cbe 345a af3e ec41 073e 5acc d3be
00000040: 6140 563e 634d 5abe 1398 53bc 9850 7b3e
00000050: 5a1b 013f a02e 25be 7e13 bebe 8e60 033f
00000060: 75b7 f53e db0b a43e 95b0 c3be b9f7 8bbc
00000070: 8b66 bdbe 83fb 11bf 56ff cebe a3c6 b53e
00000080: e073 25be f83a 78be 3794 163f 350b 0abf
00000090: 5bf2 08bf 45ca 04bf 7cae 013e af10 51be
000000a0: 744e 09be 831e 053f d93a 913e 9eff 193e
000000b0: 42a0 9f3e 271e 773e a45f 5d3c d645 dcbe
000000c0: de51 0f3f 6c19 0d3e 965c a9be 265a b63e
000000d0: 5cc9 0fbf be5d 0b3f fa75 23bd 90b6 d8bd
000000e0: 2fe8 87be 5038 fabd bfbe d3bc a7b9 a1be
000000f0: 49af e93e 29ac ea3e b5f2 5c3e 1d3d 903e
00000100: 28ce 93be e3f1 a53e 7822 a43e d721 c83e
00000110: ab14 2bbe 4da8 e9be 06f1 9bbe 014d a2be
00000120: ba9d c93d cead b23e 24cb bb3e 2f5a 453e
00000130: b436 b9be 4282 883e 6f63 bdbc 643a 12bf
00000140: 8fa5 09bf 7c86 833e 1913 22be fc79 9c3e
00000150: 3101 19bd 694d 803e c30b ab3c ead3 b3be
00000160: bf7e 273e 00b4 e3be 35b3 00bd 3184 bc3e
00000170: 1bec 293e cec9 803e d22c ff3e 27f0 aa3e
00000180: a3d8 81be c49e bf3d 65ea 083e d94c 0cbf
00000190: b815 60be cefb a1be 97f2 f5be 00e4 9d3e
000001a0: 3971 14be 6778 28be 70f0 0c3f 2195 ec3d
000001b0: 4040 e93e e340 bc3e 50b3 f3bd 4f54 60be
000001c0: bbea a4be b6d6 05bf 3e58 89be 7fe2 8ebe
000001d0: 3c87 27be 8414 1dbe 1006 67be 7199 debc
000001e0: f391 2dbe 12c6 d1be d96f 92be 310f 8cbe
000001f0: 45fd 273e cadf 57be e811 a53e 076e 083f
00000200: aab7 903e 3d4d 2ebe 9f14 d53d 976f 403e
00000210: 340b 10bf 7eb5 0d3f 2e2e aebe 351c f9be
00000220: 86d1 12bf 57a9 abbe 0153 433e f0b6 de3d
00000230: 965b 913e bf53 41be 0a87 1a3e 567e c8bd
00000240: 73de 8bbe 7845 e93d e10a 05bf d1ba 413e
00000250: c4f5 d5bd 74f3 5cbe 0359 d33e a97c fa3e
00000260: e0f3 ca3e 5958 e53e 52ad a4be 3490 10bf
00000270: e8a9 aabe d1c2 7f3e 78f2 c83e 287f a13e
00000280: f64b 0bbf 3ad4 8abd 7e61 c23e 67eb ff3e
00000290: 6cef c3be 3071 8bbe d4f5 903d f3c0 c5be
000002a0: 2606 00bf daf7 67be 9f31 90be bc49 f33e
000002b0: b8e1 123f 7309 923e f51c 0cbf db68 493e
000002c0: 86ce 77be 749c 76be c3c3 71be 54f6 5abe
000002d0: 1ebe 473e c4c6 08bf c859 c33e 5608 f1be
000002e0: e4c9 a1bd a489 f9be 4b3e 203d 7a26 25be
000002f0: 3e0f 023f 2eba 9f3e 2468 373e 802f 353e
00000300: 1bc5 993e 75b0 aabe 6a50 123f 926d e3be
00000310: f751 40be da1c 043f bd34 0dbf 0bd1 4abe
00000320: 7bef ba3e a12f 713d 9775 903e e3f6 90bd
00000330: e338 913e 5654 10bf bf84 453e 59ae 903d
00000340: f419 6dbd 8194 31be 3071 0fbe f880 8c3e
00000350: c624 c73e 1b67 fc3e 90e3 ff3e 41da 533e
00000360: 4e29 9c3e 0cda 013e 50cc 743d 03b9 283e
00000370: 17ea d63e ecc0 983e be36 5dbe 7328 df3e
00000380: 5f53 f03d 972c 08bf b6c8 a4be 2d68 133f
00000390: 4f64 f3be 9d50 8bbe ca49 273e c812 c53e
000003a0: f0f4 b8bd 9668 dbbe 87f0 90be 0c7b 34be
000003b0: 664d c9be 2946 b5be 9e75 dbbd 16c4 1b3e
000003c0: 1e58 4d3e 18c9 acbe 9a89 fabb a6c4 a2bd
000003d0: 8729 d43b ff86 0c3f 021d 123f 4f57 c13e
000003e0: 43d4 e1bd 82e0 403d a5ad 993d 9eab a03e
000003f0: 4ef7 d63e ed97 aa3e 2231 36be ea1f 7ebe
-0.19102755 -0.102649346 0.19124939 0.39949027 0.2814979 -0.19888605 0.21777129 -0.40993577
0.38724238 0.21492894 -0.37534976 0.08685075 -0.21508217 0.34248507 0.13208741 -0.41366845
0.20922996 -0.21318583 -0.012914675 0.24542463 0.5043236 -0.16131067 -0.37124246 0.51319206
0.4799153 0.32040295 -0.3822066 -0.017085897 -0.36992297 -0.570244 -0.4042918 0.3550311
-0.16157484 -0.24241245 0.5881991 -0.5392335 -0.53494805 -0.5187114 0.12664217 -0.2041652
-0.13408834 0.5199968 0.2836521 0.15038916 0.31176955 0.24132596 0.013511572 -0.4302203
0.55984294 0.13779229 -0.3307845 0.35615653 -0.56166625 0.54439914 -0.039907433 -0.10581696
-0.2654433 -0.12217772 -0.02584779 -0.31586954 0.45641544 0.45834473 0.2157696 0.28171626
-0.28868222 0.32411107 0.32057548 0.39088318 -0.16707103 -0.45636216 -0.30457324 -0.31699374
0.09844537 0.34898227 0.36678421 0.19272684 -0.36174548 0.2666188 -0.023118703 -0.5712035
-0.5376825 0.2568854 -0.15827598 0.30561817 -0.03735465 0.2505906 0.020879632 -0.35122615
0.16356944 -0.44473267 -0.031420905 0.36819604 0.16593973 0.25153965 0.49838883 0.33386347
-0.25360593 0.09356454 0.13370664 -0.5480476 -0.21883285 -0.31637424 -0.48036644 0.30838013
-0.14496316 -0.1645218 0.5505438 0.115518816 0.4555683 0.36768255 -0.118994355 -0.21907161
-0.32210335 -0.5228075 -0.26825136 -0.27907178 -0.16360182 -0.15339857 -0.22560906 -0.027172776
-0.16950206 -0.40971428 -0.28600958 -0.2735534 0.16405208 -0.21081463 0.32240224 0.5329289
0.28265125 -0.17021652 0.10404324 0.18792568 -0.56267095 0.5535506 -0.34019607 -0.48654333
-0.5735096 -0.33527634 0.19074632 0.10874736 0.28390187 -0.18879603 0.15090576 -0.09789722
-0.27318153 0.11390203 -0.51969725 0.18918921 -0.10447267 -0.21577245 0.41278848 0.48923233
0.39639187 0.44793966 -0.32163483 -0.56470037 -0.33332753 0.2497666 0.3924749 0.31542325
-0.5441278 -0.0677876 0.37965006 0.49984285 -0.38268602 -0.27234793 0.07078138 -0.3862377
-0.5000938 -0.22653142 -0.28162858 0.47517192 0.5737567 0.28522834 -0.54731685 0.19668905
-0.24199876 -0.2408312 -0.23609833 -0.21383029 0.19506118 -0.5342829 0.38154435 -0.47076672
-0.07899836 -0.48737824 0.039121907 -0.16127959 0.5080451 0.3119673 0.1791082 0.17693901
0.30033192 -0.3333775 0.5715395 -0.44419533 -0.18781267 0.51606524 -0.551586 -0.19806306
0.36510834 0.058883313 0.28214714 -0.0707834 0.28363714 -0.56378686 0.1928892 0.07064504
-0.05788608 -0.17341806 -0.14008021 0.27442145 0.38895243 0.49297413 0.49978304 0.20688726
0.30500263 0.12680835 0.05976516 0.16476826 0.4197547 0.29834688 -0.21602914 0.43585548
0.11734652 -0.5319304 -0.3218438 0.57580835 -0.47537467 -0.2720994 0.16336742 0.3849089
-0.09031093 -0.4285323 -0.28308508 -0.17625064 -0.39316863 -0.3540509 -0.10715793 0.1521152
0.20053145 -0.33747172 -0.007645798 -0.07947664 0.006474677 0.5489349 0.5707551 0.37761924
-0.11026814 0.047089107 0.07503823 0.31380934 0.41985554 0.33319035 -0.1779218 -0.24816862

fc2.weight f4 [300, 401]
00000000: 1096 083c 66cb 443d 6ed7 37bb fc81 f0bb
00000010: 4711 863c 1979 ba3d 4737 62bc 9031 103c
00000020: 7d01 613d 5c44 b73c cdd6 b5bc 9203 f03d
00000030: 7fbd bc3d c884 343d f0ef d43c 0ceb 2b3d
00000040: e04a 19bd 4b75 493e 0211 fe3c fbf7 163d
00000050: d35c 14bd 221a 0d3e 4887 853b b399 0e3a
00000060: 8ba1 0f3c 3c3d 1abb 043f 6fbc 629c 043d
00000070: ac55 20bc 20bf 4f3d a35f 96bc 314e 3a3d
00000080: c446 2a3e fe77 87bd 8b92 d53c c0c7 4b3b
00000090: 36ab 113d db3f 54bd 053c a53c 1f3b 243e
000000a0: a96f 223e 345f 0a3d f42a 4e3b 0023 713d
000000b0: 31f4 3d3c a037 3d3c b80e 073d 383a 153d
000000c0: 263a 1d3c 3795 a73d d483 153d 5b8f 21bd
000000d0: 005d a03b 0468 ecbc 4aa1 aa3d a4a9 e33c
000000e0: 3b2f 873e fcd2 ff3d ec2b ca3d 4508 5ebd
000000f0: 4ef1 513d 527b 5c3d 9f0a b03d 0e6d 54bd
00000100: 79e6 713c 0cf3 423c 3a2b 3e3c 1abf 82bc
00000110: c47f 453e 8ca4 67bd af28 763e b8c7 4f3d
00000120: 6509 a3bc 66b4 5b3d 8e33 8dbc ef5d 9b3d
00000130: 1897 533d bbef 6b3d b4e7 b33d cc8f db3c
00000140: 8426 123d d703 693d 85ae 5a3d 2daa 22bd
00000150: fa15 053e ec6f a1bb 69c3 843d 0057 2abd
00000160: 8660 733d 18b0 9ebb 31cd ce3d 646a e33a
00000170: 15b9 ee3b 029d ea3b fb17 1dbc ca33 8c3c
00000180: 72cb 103e a0d8 d43d 2517 e23d 901d bc3b
00000190: c286 373d 6085 de3c 00b4 baba ceb7 f7bc
000001a0: 5ca2 093e 9689 253e 8d5c 10bd 124b be3d
000001b0: 1f76 633d 50ea 0f3d d3dc 38bd 5b65 be3d
000001c0: 0a4b 18bd f82a 473d 5bb4 2dbd 68e8 cfbc
000001d0: d80c bcbb 271a b93d c01b 803a 4185 953d
000001e0: fa09 12bc 561c 4f3d df1b dbbc 78a2 483d
000001f0: 027a e03d 8c4a 163e 449f a43c a86a 0bbd
00000200: 7ddf 1e3d 8ba1 0a3e 6858 353d 4a58 d33c
00000210: 4483 5bbc 5b81 163d ec8e 18bc 6ccf a43c
00000220: d076 7e3c a432 ee3c a064 05bc 0839 303d
00000230: 5354 52bc 906b ac3d e188 fc3b 745d 283d
00000240: a87c bd3c a6c0 583d e4c6 a7bc 4f4a dc3d
00000250: 6279 1b3d 901e 453c afc4 743d 195c 52b9
00000260: 47f6 f5bc be4c 12bc 8858 a03c 0095 cc3b
00000270: 3c5b cd3c bb31 d43b b359 cabc 37b5 f23a
00000280: e449 613d ff46 d63d cf4e 823c e0a1 acbc
00000290: d8ad 833c f2a5 21bd d397 ff3d c0e7 603d
000002a0: a8f6 083d 7049 d83b 5e34 4f3d cc64 833d
000002b0: 3cbb 14bd 6485 3cbd b886 1d3c 8335 433d
000002c0: 6036 9c3b 8494 383d 2f6d 2e3c 979c 253e
000002d0: 2548 633d 70b7 b5bc e648 203c 8c2a 43bd
000002e0: f5ba a53d 7687 86bc 8109 093e 4c64 a13c
000002f0: 9401 133d 8a57 d4bc 80d6 8b3d 09f6 d63b
00000300: 7fb5 a03d c128 583e df31 13bd c6ce cabc
00000310: d2ae 0f3e 1197 dc3c 9043 283c 81cc fd3d
00000320: 5086 8b3d 789a 3f3d 96a1 863d 2b0a a53d
00000330: efbf 283d f0c7 36bd 698a 333d 8a8b ef3d
00000340: b9b4 053e ccf5 5b3e 454d 043e 7809 78bc
00000350: 4808 e03b c9c4 863c 2281 6c3c 23e1 ab3c
00000360: 1c6a 493d 28cf 9e3d 7938 dc3d 94d0 693b
00000370: 9645 ad3c fea7 db3b 1e30 513e 15e1 1a3c
00000380: 57c5 133d 00b6 d83c 900c 0d3c 65b1 0f3d
00000390: c4de 8f3c b47b 0f3d 3847 f83b f7d8 913c
000003a0: 333a ba3d 4022 423a 15a2 be3e 0600 1a3e
000003b0: 2c2c 223d 78a0 5cbc ec89 243e 3a56 97bc
000003c0: 634d ee3d 10d6 ae3c fb64 8a3d 637d 0f3e
000003d0: 8398 083d 0ad2 3f3d dbdb 3f3d edad debc
000003e0: cf3a cb3d f7c0 033d b4b5 e43d a435 823d
000003f0: 7383 233d 5a73 3a3d a23b 3b3d 901b a83b
0.008336559 0.04804554 -0.002805199 -0.007339714 0.01636566 0.09105129 -0.013807124 0.008800879
0.05493306 0.022371463 -0.022197152 0.11719431 0.09215831 0.044071943 0.025993317 0.041972205
-0.037424922 0.1967365 0.03101397 0.036857586 -0.036221337 0.137795 0.0040749647 0.0005439773
0.008766542 -0.0023535034 -0.014602426 0.0323757 -0.009786051 0.05071938 -0.01835615 0.045484725
0.16628557 -0.066146836 0.026070854 0.0031094402 0.03556367 -0.05181871 0.020170221 0.16038178
0.15862907 0.0337822 0.0031458708 0.05887127 0.011593864 0.011548907 0.03297302 0.036432475
0.009596383 0.08182757 0.036502674 -0.039443355 0.004893899 -0.028858192 0.08331545 0.027790852
0.2640322 0.12491414 0.09871659 -0.054207105 0.051255517 0.053828545 0.08595776 -0.051861815
0.014764422 0.011898767 0.011606986 -0.015960265 0.1928702 -0.05655341 0.24038957 0.050727576
-0.01990194 0.05363884 -0.017236497 0.07586276 0.051657766 0.05760167 0.08784428 0.026801966
0.035681263 0.056888428 0.05338909 -0.039713074 0.12996665 -0.004926672 0.06482584 -0.041586876
0.059418224 -0.0048427694 0.10097731 0.0017350432 0.007285247 0.00715983 -0.009588237 0.017114539
0.14140108 0.103928804 0.11039571 0.005740829 0.04480625 0.027163208 -0.0014244318 -0.030239012
0.13440841 0.16165766 -0.035244513 0.09291662 0.05553257 0.035135567 -0.04513247 0.09296676
-0.037180938 0.048624963 -0.04240833 -0.025379375 -0.005738836 0.09038191 0.0009773895 0.07300807
-0.008913511 0.050564133 -0.026746688 0.048983067 0.10960771 0.14676875 0.020095475 -0.034037262
0.038787354 0.13538186 0.044273764 0.025798935 -0.013397995 0.036744457 -0.009311419 0.020118438
0.015531257 0.029076882 -0.008141667 0.04302314 -0.012837487 0.084189534 0.007706747 0.04110475
0.02313073 0.0529181 -0.02048058 0.10756361 0.037957557 0.012031212 0.059757885 -0.0002006147
-0.03002466 -0.00892943 0.019573465 0.006243348 0.025067918 0.006475655 -0.024700975 0.0018517141
0.05500211 0.1046276 0.01590672 -0.021073282 0.016074106 -0.0394649 0.1248013 0.054908514
0.033438355 0.0066005513 0.05058705 0.0641571 -0.036311373 -0.04602565 0.009614639 0.047658455
0.004767224 0.04506351 0.010646149 0.16173016 0.055488724 -0.022182196 0.009783005 -0.047647998
0.080923 -0.016422015 0.13382532 0.019701146 0.035890177 -0.025920648 0.06828022 0.0065600914
0.07847118 0.21109296 -0.035936233 -0.0247568 0.14031532 0.026927503 0.010270014 0.12392522
0.068127275 0.046778172 0.06573789 0.0805858 0.041198667 -0.04462427 0.04383317 0.11696537
0.13057221 0.21480483 0.12920101 -0.015138976 0.0068369247 0.016451256 0.014435085 0.020981377
0.04917346 0.07754356 0.10752959 0.00356773 0.021151345 0.006703376 0.20428512 0.009453078
0.03607687 0.026453972 0.008608952 0.035081286 0.017562278 0.035030082 0.0075768493 0.017803652
0.09093132 0.00074056163 0.37233034 0.15039071 0.039592907 -0.013465993 0.16068238 -0.018473733
0.11635854 0.021342307 0.06757542 0.14012675 0.03334857 0.04683117 0.04684053 -0.027182544
0.09923326 0.032166447 0.111674696 0.063578874 0.03992028 0.045520164 0.045711167 0.005130239

fc2.bias f4 [300]
00000000: 3fb8 f03b f8c3 5fbd 8df9 2a3c 32de a73c
00000010: f498 7d3c d2b4 94bc 72a7 00bd 99a3 42bc
00000020: 0a33 0bbd 5e76 833c 163e de3c 5231 10bd
00000030: e5a9 1bbd f26b 62bc 4a03 b73c bda1 36bd
00000040: 9cfa 91bd e130 9ebd 6462 89bb 56e3 2bbd
00000050: 2c05 a63c b8e6 013d c186 e1bc a110 07bb
00000060: ef52 d83c fb0b 36bd a8d0 96bb b901 b9bc
00000070: 0682 63b8 f2d2 37be e7be 003d 593a dcbc
00000080: 4699 f33c 2022 51bb 350b 00bd 45d5 1a3d
00000090: a7bb 55bd bb87 39be 3ba8 2dbd 8da6 e5bc
000000a0: 4620 65bc 2ee3 3cbd 7e39 723c 0301 d03c
000000b0: 7e05 0a3a 3fe3 48bc 0140 cebc 1b06 75bd
000000c0: 4c58 c63c 12d8 ce3d 593d 8bbb 1d69 e83b
000000d0: 8b01 1ebd 50b5 ae3c ca29 5dbc 9559 18bd
000000e0: 08a7 13bd dc15 c8bd c9de 2dbd 403c 3fbc
000000f0: a7bc 2fbd 6636 35bd dece d83c 1f54 3a3a
00000100: bb99 0a3d 1647 69bd 7d6f 9c3c 9b40 c8b9
00000110: 932c 863b 5bcc 48bd d165 a6bb 8683 843c
00000120: 6080 fa3b 9389 1b3d 4ee9 cdbc d7d2 18bd
00000130: 887e a43c 2075 c13c 00a7 afbc 95d4 863b
00000140: 1288 f2bb 2ff4 39bd 8823 063b d7fa 50bd
00000150: f7fb ebbc e278 1dbb dcaa b1bb 845b cf3c
00000160: ca02 5dbd 9a82 9b3c 6539 30bd ccc1 e4bc
00000170: b2ea e0bc a970 a9bb 1139 903c 2456 45bc
00000180: d63e 99bc 33aa c43c ccb3 e33c 7a88 973c
00000190: 2934 e93c 4ed0 ac3c a288 60bc fce2 8bbd
000001a0: 8318 223d dd79 02bc a9c3 633c f260 d6bc
000001b0: c68f f03c ce8b 72bc ecab 2cba dce4 2dbd
000001c0: 1fc8 ec3b dc82 c2bc a11c 79bd 77f4 013d
000001d0: 60e3 d23c ce3c 06bd 426d b53c f04b 5abd
000001e0: 4b7f 78bc 9f9f 4fbd 30d1 9f3c d804 28bd
000001f0: 7ae3 d1bc f19c d5bc c013 68bc d316 5cbc
00000200: fbc5 d93b 49c1 efb9 4e89 d33c b633 2f3d
00000210: 9332 f3bc e017 e3bb af49 a0bb de2b a43c
00000220: 0f19 fabc c5e4 c83a 3dd9 013d e984 29bc
00000230: ad30 483c 2e1f 613c d680 b9bd 821c 9c3c
00000240: d5b4 8dbc 1825 41bc ad94 3fbd 1fbe c3bc
00000250: ed73 fabd 1f73 fbbc 6a1e f63c ac31 e7bc
00000260: 946d 78bc dce8 343c a29f 39bd be02 fb3c
00000270: 01dd 363d 9285 46bd a3eb 38bc 0383 43bd
00000280: 7a0c b3bc 4ea9 9b3c 0536 03bd dcf4 fabb
00000290: c983 63bd 8544 2c3d 2d5c 95bb a56d d73c
000002a0: b26f b7bc 84ec 733c 7fd0 263d eef3 b9bc
000002b0: 63d8 423c bf04 183d e422 d63b 4ba8 39bd
000002c0: 9d40 0bbd ad1a 6dbc e5b6 62bd 70e1 babd
000002d0: 7d35 363c ac1d 053c 8598 d73c df7c 62bc
000002e0: 6535 b33c 0ef1 4dbd 6499 df3d 463a 4dbd
000002f0: dfaf f4bc 80e6 b339 b075 5dbb 46af 39bd
00000300: 9943 fe3c 6c38 c3bb e1fd f73b b21d a5bc
00000310: aea2 55bd 700e 8e3c e388 253d d156 013d
00000320: 8547 5abe 9c43 98ba 476d 183d 6118 4b3d
00000330: 16b6 f43c 6867 843c 0392 64bd 1683 d63c
00000340: 507b 32bd 3fbc 5abd df97 263d 3fe2 4fbb
00000350: 1582 0ebd 22c0 053d 7ddc 6cbd 4029 b33c
00000360: 0ce7 033b b64e bcbb 6e03 c2bc 839f e43b
00000370: 6422 173c 61e4 a8bd a1f1 f1bd fbb8 53bd
00000380: 5dd3 ce3c 2b52 6ebd 8b7a c63c 4bb7 e83c
00000390: f160 153d af07 3cbd df0a 5ebd 4e41 e8bc
000003a0: 1e67 0abd 5b07 2b3d 34c7 a6bd 4954 71be
000003b0: e9e3 8b3c e1b5 3bbd db50 38bd 8ac7 813a
000003c0: 5f6b d03b 03aa ce3c 87c6 f13c 30ff 4b3b
000003d0: 06c6 b8bc cfdf 173d 6784 953b c0ec 2e3a
000003e0: a602 b43c e38e 08be 1618 a13c 6f93 36bd
000003f0: 6d54 f7bc 34f0 0ebd 9614 453c 8cb1 dd3b
0.0073461826 -0.05463025 0.010435474 0.020491693 0.015478361 -0.018152628 -0.03140969 -0.011879825
-0.03398422 0.016047653 0.027129214 -0.035203286 -0.03800382 -0.0138196815 0.022340436 -0.04458784
-0.07127878 -0.07724167 -0.0041926373 -0.04196485 0.020266138 0.03171417 -0.027530076 -0.0020609277
0.026406733 -0.04444502 -0.0046025105 -0.02258383 -5.424211e-05 -0.17951563 0.03143206 -0.026883291
0.029736172 -0.003191121 -0.031260688 0.037801046 -0.052180912 -0.18118183 -0.042396765 -0.02803352
-0.013984745 -0.046115093 0.014784215 0.025391107 0.00052651006 -0.012261211 -0.025177004 -0.059820276
0.024212025 0.10099806 -0.0042492566 0.0070926086 -0.03857569 0.02132669 -0.013498733 -0.037194807
-0.036047965 -0.09769794 -0.042448793 -0.01167208 -0.042904522 -0.04424133 0.02646583 0.0007107872
0.033838015 -0.05695256 0.01909613 -0.00038195107 0.004094669 -0.049023014 -0.0050780554 0.016175997
0.007644698 0.037972998 -0.025135662 -0.037310448 0.020079866 0.02361542 -0.021441936 0.004114697
-0.0074014748 -0.045398887 0.0020467956 -0.05102047 -0.02880667 -0.002402835 -0.0054219794 0.025312193
-0.053957738 0.018983174 -0.043023486 -0.02792444 -0.027455661 -0.005170901 0.017605336 -0.012044463
-0.01870672 0.024006939 0.027795695 0.018497694 0.028467255 0.021095421 -0.013704451 -0.06830403
0.039574157 -0.007963625 0.0139016295 -0.026169274 0.029365432 -0.01480384 -0.00065868977 -0.042454585
0.0072260047 -0.02374404 -0.06081832 0.03172728 0.025743186 -0.03277283 0.022146825 -0.053295076
-0.015167068 -0.050689336 0.019508928 -0.041020244 -0.025621165 -0.026075812 -0.014164865 -0.013433176
0.0066459156 -0.0004572964 0.025822308 0.042773925 -0.029687202 -0.0069303364 -0.0048915963 0.020040449
-0.030529527 0.0015326968 0.031701315 -0.01034663 0.012218636 0.013740344 -0.09057777 0.019056562
-0.017298141 -0.011788629 -0.046772648 -0.023894368 -0.12229142 -0.030694542 0.0300438 -0.028221928
-0.015162844 0.011041846 -0.045318253 0.030640956 0.04464436 -0.048467226 -0.011286649 -0.047732364
-0.021856535 0.01900163 -0.03203394 -0.007658584 -0.055545602 0.042057533 -0.0045581074 0.0262974
-0.022392128 0.014887933 0.04072618 -0.022699323 0.011892411 0.0371139 0.006534921 -0.045326512
-0.033997167 -0.014471692 -0.055350203 -0.0912503 0.011121151 0.00812475 0.026317844 -0.013823717
0.021876046 -0.050278716 0.10917929 -0.050104402 -0.029869018 0.00034313276 -0.003379207 -0.04533317
0.031038092 -0.0059576537 0.0075681065 -0.020155761 -0.052157097 0.017340869 0.04041375 0.031576935
-0.21316345 -0.0011616829 0.03721359 0.049583796 0.029871982 0.01616259 -0.05580331 0.026185554
-0.04357463 -0.05340218 0.04067218 -0.0031720547 -0.034792025 0.032653935 -0.05782746 0.021870255
0.0020126728 -0.0057466878 -0.023683276 0.006977023 0.009224508 -0.08246685 -0.11813665 -0.051690083
0.02524727 -0.05818383 0.024228355 0.028407713 0.036469404 -0.045905765 -0.054209586 -0.028351452
-0.033789746 0.04175506 -0.08143464 -0.23567308 0.01707645 -0.04582775 -0.044998985 0.0009901386
0.006360456 0.025227552 0.02951361 0.0031127445 -0.022555362 0.037078675 0.0045629027 0.0006672852
0.02197392 -0.13335757 0.019664805 -0.044574197 -0.030191625 -0.034897044 0.012028834 0.00676555

fc3.weight f4 [1, 300]
00000000: efb0 55bd c8f4 74bd a2d0 8fbb f555 5fbd
00000010: b8bd 57bd c26d c8bb f45c 48bd 49b9 51bd
00000020: 0dbe 22bb a94d 57bd 4204 1ebb 4a3b 3a3b
00000030: fa35 afbb 782b 58bd 235f 51bd c10c 013d
00000040: e481 3cbe 4fba 18be 00bf 46bd a1b1 49bd
00000050: f9aa 42bd 67eb 53bd e79f c3bd e5bf 40bd
00000060: cc95 6bbd 5f78 53bd d02a 253b 8858 373a
00000070: 925d 97bb 50e7 4abe 310e a6bb daf6 36bb
00000080: c859 88ba f431 fd3a 0020 35bb 5d1e 4bbd
00000090: 1e9f 09be 5a56 4ebe 54ea c2bb a6ad eabb
000000a0: fb92 4cbd c517 29bb 4ccd 4bbd 4a0d 5fbd
000000b0: ea26 29bc c4e3 69bd 1c20 7ebc 03dd 28be
000000c0: 4812 c5bb cd63 223e c8b7 0d3d 9484 57bd
000000d0: 37f0 d4bb eb8c a4bb e16d 8fbb 97f3 45bd
000000e0: c0d5 46bd 19ed b3be dec0 cbbd 860f 333b
000000f0: 31ad 70bd 4cd0 9a3a 886b 0e3a fbce f5bb
00000100: 17ba 4ebd da08 e0bc 4828 47bd 225e acbb
00000110: 1d4d 52bd a80e 58bd 7dba 4fbd 5159 4abd
00000120: 401d 50bd 0428 5fba 7bcb 3cbd f288 a8bb
00000130: 67ca 6dbb 9ed3 4cbb 0113 4fbd d457 52bd
00000140: 492f f2bc 08af fa3a d5e4 64bd 0c7b 50bd
00000150: de89 21bc e1b4 d6bb 904d 5dbd 7dd1 49bd
00000160: 0664 50bd 6d3f 8cba 24c6 1abb a55f 43bd
00000170: b90d ee3c e201 0a3c e171 61bd fe92 5fbd
00000180: 4636 dc3c 2306 3fbd 66c6 42bd fc80 4fbd
00000190: fc56 8fbb 4ae7 79bd 22ce ffbb 1a12 92bd
000001a0: 858b 45bd f4f9 48bd a7a3 abbb 4f3b 45bd
000001b0: 4c77 bdbb 47be 5abd 2b19 a03c 2aa9 1abe
000001c0: 544a 45bd 824a 49bd d906 f73c fb6a 63bd
000001d0: 5c2e 68bd 2841 e839 6ad9 3fbd ddb5 96bb
000001e0: db8a c0bb fb89 8cbb c550 5dbb 6244 fdbb
000001f0: f8eb 303b 9a18 8dbc bc96 07bb c56a 58bd
00000200: 5b6b a13c 3432 5dbd e63b 143c 25ed 29bd
00000210: 90f4 deb9 60c8 1d39 5b6a a6bb 45f4 9ebb
00000220: 84f4 54bd 7b6c 66bd be4b 52bd 386d 4fbd
00000230: 6025 46bd 3fa6 41bd 1e68 48be 374c 47bd
00000240: 7003 5ebd e803 6abd dc57 f63a ee0e febb
00000250: 8ae5 4ebe ab10 efbb 6991 4fbd f05c eebb
00000260: 121f 08bb ff98 f7bc d1ff 5cbd c910 c8bb
00000270: 7e85 4abd 3f0e 57bd 3fa3 66bb 480b bcb9
00000280: b8b5 98bb 3774 4bbd 3cf5 cf3a f2c1 60bd
00000290: d008 a3bb 03d5 6fbb 4d4e 47bd d8a7 63bd
000002a0: a2b4 68bd cb3e 68bd c867 ab3a 7212 67bb
000002b0: d9d4 49bd 37a8 61bd 4d8a 54bd a510 bfbb
000002c0: 80cf 5dbd 6fca e1bb eed6 5bbd 36de f3bd
000002d0: da3b 91bb d065 88ba 4711 55bd d9da 61bd
000002e0: 4293 5bbb 3e51 54bb 5fd0 2b3e 7187 64bd
000002f0: 814e e93c ec01 7cba aca6 42bb 3331 5abd
00000300: 03c4 57bd 4c2c 4dbd 531b 3bbd c449 9fba
00000310: 07db 42bd af08 41bd 9815 b9bb d486 54bd
00000320: d3d3 2cbf 07b2 e1bc 8016 3bb8 ec90 a33a
00000330: b354 a0bb 9068 53bd 5401 213c e065 bd3a
00000340: 6c8a 3bbd 8540 5dbd 7029 23b9 b4c4 c8bb
00000350: 32df 56bd be62 51bd 31b0 ccbd 8629 59bd
00000360: 0f0c cd3b 8354 3cbd 66e7 5dbd c1b2 b1bb
00000370: 5ca6 b23a 0461 eabd 18c9 8dbe 49d9 00be
00000380: c273 44bd dba7 11bc 53ca b6bb 2d75 adbb
00000390: 8c5f 8d3a ab5c 37bd 59b3 55bb 6ce6 b2bb
000003a0: 2d45 5bbb 5b11 56bd 5c0d 2abe a8a1 28bf
000003b0: 7df4 76bb eb5c d33b 68f2 53bd 716d d1bb
000003c0: 083e 45bd 7a6e 01bc e975 95bb 64f8 ddba
000003d0: c8b1 273a 0a96 3bbd 4a53 c1bb 16c5 243b
000003e0: 5f3b 4ebd d50d 59be 8c31 ecbb fa58 b3bb
000003f0: 963d e3bd ecfd 56bd e8e9 64bd 9560 d4bb
-0.05217069 -0.059803754 -0.0043888846 -0.054525334 -0.052671164 -0.0061166 -0.048916772 -0.051202092
-0.0024832517 -0.052564297 -0.0024111425 0.0028416687 -0.0053470107 -0.05277583 -0.05111612 0.031506304
-0.18408924 -0.14914821 -0.048521996 -0.049241666 -0.047526333 -0.05173817 -0.09551983 -0.047058005
-0.057515904 -0.051628467 0.002520252 0.0006994088 -0.0046193087 -0.19814801 -0.0050676097 -0.002791813
-0.0010402733 0.0019317255 -0.0027637482 -0.049589504 -0.13439605 -0.20150128 -0.0059483442 -0.007161814
-0.04994486 -0.0025801521 -0.049756333 -0.054456033 -0.010324219 -0.05710198 -0.015510585 -0.1649056
-0.006014142 0.15858383 0.034599096 -0.05261667 -0.0064983624 -0.0050216815 -0.0043771123 -0.04832801
-0.04854369 -0.3514183 -0.09948896 0.0027322485 -0.05875892 0.0011811345 0.00054328935 -0.0075014806
-0.050470438 -0.02734797 -0.0486224 -0.005260245 -0.051343072 -0.052748352 -0.05071496 -0.049401585
-0.050809145 -0.00085127377 -0.04609249 -0.0051432783 -0.0036283971 -0.0031254063 -0.050555233 -0.05135329
-0.029563563 0.001912565 -0.055882294 -0.050898597 -0.00985953 -0.006552324 -0.054029047 -0.04927205
-0.05087664 -0.0010700055 -0.0023616636 -0.047698636 0.029059278 0.0084233 -0.055040244 -0.054583542
0.026881348 -0.04663671 -0.04755249 -0.05066012 -0.004374383 -0.06101159 -0.0078065554 -0.07132359
-0.04822876 -0.0490665 -0.0052380147 -0.048152264 -0.0057820436 -0.05340412 0.019543251 -0.15103593
-0.048166588 -0.04914332 0.030154632 -0.055521946 -0.056684837 0.00044299033 -0.0468382 -0.0045993165
-0.005875928 -0.0042889095 -0.0033770066 -0.007729099 0.0026996117 -0.017223645 -0.002068921 -0.0528362
0.019704511 -0.054002956 0.009047484 -0.041485924 -0.00042525353 0.00015047332 -0.0050785965 -0.0048508965
-0.051991 -0.0562558 -0.051341765 -0.05064127 -0.048375487 -0.047277685 -0.19570968 -0.04865667
-0.054202497 -0.05713263 0.0018794495 -0.0077532446 -0.2020475 -0.007295688 -0.050675783 -0.0072742626
-0.0020770472 -0.030224321 -0.053954903 -0.0061055166 -0.049443714 -0.05250382 -0.0035192517 -0.0003586656
-0.0046603344 -0.049671378 0.0015865932 -0.05487246 -0.0049754158 -0.003659547 -0.048658658 -0.05557999
-0.05681289 -0.05670051 0.0013077194 -0.0035258797 -0.049275253 -0.055092063 -0.051889706 -0.0058308416
-0.054152966 -0.006890587 -0.05367177 -0.11907618 -0.0044321837 -0.0010406319 -0.05201843 -0.05514035
-0.003350452 -0.0032397057 0.16778706 -0.05579323 0.028479816 -0.00096133235 -0.0029701395 -0.053269576
-0.052677166 -0.050091073 -0.045680355 -0.0012152721 -0.047572162 -0.047127422 -0.005648326 -0.051886395
-0.6751072 -0.02755071 -4.460523e-05 0.0012479103 -0.0048929094 -0.05161339 0.009826977 0.0014449917
-0.045786306 -0.05401661 -0.00015560328 -0.0061269645 -0.05245895 -0.05111956 -0.09994543 -0.053018115
0.006257541 -0.045979034 -0.054175757 -0.0054229205 0.0013629901 -0.114442855 -0.27692485 -0.12582888
-0.047961958 -0.0088901175 -0.005578318 -0.0052935095 0.0010785921 -0.04476611 -0.003260812 -0.0054595973
-0.003345798 -0.052262645 -0.16606659 -0.6587167 -0.0037682347 0.0064502857 -0.05174485 -0.0063912203
-0.04815486 -0.007899875 -0.004561175 -0.0016934988 0.0006397036 -0.045797385 -0.0058998214 0.0025141886
-0.05034959 -0.21196683 -0.007208055 -0.0054732533 -0.11095731 -0.052488253 -0.055887133 -0.00648124
